<?xml version="1.0" ?>
<net name="vehicle-license-plate-detection-barrier-0106" version="10">
	<layers>
		<layer id="0" name="Placeholder" type="Parameter" version="opset1">
			<data element_type="f16" shape="1,3,300,300"/>
			<output>
				<port id="0" precision="FP16">
					<dim>1</dim>
					<dim>3</dim>
					<dim>300</dim>
					<dim>300</dim>
				</port>
			</output>
		</layer>
		<layer id="1" name="Placeholder/reverse_input_channels18933/Concat18952_const417_const" type="Const" version="opset1">
			<data element_type="f16" offset="0" shape="1,3,1,1" size="6"/>
			<output>
				<port id="1" precision="FP16">
					<dim>1</dim>
					<dim>3</dim>
					<dim>1</dim>
					<dim>1</dim>
				</port>
			</output>
		</layer>
		<layer id="2" name="Mul_/Fused_Mul_" type="Multiply" version="opset1">
			<input>
				<port id="0">
					<dim>1</dim>
					<dim>3</dim>
					<dim>300</dim>
					<dim>300</dim>
				</port>
				<port id="1">
					<dim>1</dim>
					<dim>3</dim>
					<dim>1</dim>
					<dim>1</dim>
				</port>
			</input>
			<output>
				<port id="2" precision="FP16">
					<dim>1</dim>
					<dim>3</dim>
					<dim>300</dim>
					<dim>300</dim>
				</port>
			</output>
		</layer>
		<layer id="3" name="Placeholder/reverse_input_channels18935/Concat18960_const419_const" type="Const" version="opset1">
			<data element_type="f16" offset="6" shape="1,3,1,1" size="6"/>
			<output>
				<port id="1" precision="FP16">
					<dim>1</dim>
					<dim>3</dim>
					<dim>1</dim>
					<dim>1</dim>
				</port>
			</output>
		</layer>
		<layer id="4" name="Add_/Fused_Add_" type="Add" version="opset1">
			<input>
				<port id="0">
					<dim>1</dim>
					<dim>3</dim>
					<dim>300</dim>
					<dim>300</dim>
				</port>
				<port id="1">
					<dim>1</dim>
					<dim>3</dim>
					<dim>1</dim>
					<dim>1</dim>
				</port>
			</input>
			<output>
				<port id="2" precision="FP16">
					<dim>1</dim>
					<dim>3</dim>
					<dim>300</dim>
					<dim>300</dim>
				</port>
			</output>
		</layer>
		<layer id="5" name="18191823_const" type="Const" version="opset1">
			<data element_type="f16" offset="12" shape="" size="2"/>
			<output>
				<port id="1" precision="FP16"/>
			</output>
		</layer>
		<layer id="6" name="18201824_const" type="Const" version="opset1">
			<data element_type="f16" offset="14" shape="" size="2"/>
			<output>
				<port id="1" precision="FP16"/>
			</output>
		</layer>
		<layer id="7" name="18211825_const" type="Const" version="opset1">
			<data element_type="f16" offset="12" shape="" size="2"/>
			<output>
				<port id="1" precision="FP16"/>
			</output>
		</layer>
		<layer id="8" name="18221826_const" type="Const" version="opset1">
			<data element_type="f16" offset="14" shape="" size="2"/>
			<output>
				<port id="1" precision="FP16"/>
			</output>
		</layer>
		<layer id="9" name="MobilenetV2/Conv/Conv2D/fq_input_0" type="FakeQuantize" version="opset1">
			<data levels="256"/>
			<input>
				<port id="0">
					<dim>1</dim>
					<dim>3</dim>
					<dim>300</dim>
					<dim>300</dim>
				</port>
				<port id="1"/>
				<port id="2"/>
				<port id="3"/>
				<port id="4"/>
			</input>
			<output>
				<port id="5" precision="FP16">
					<dim>1</dim>
					<dim>3</dim>
					<dim>300</dim>
					<dim>300</dim>
				</port>
			</output>
		</layer>
		<layer id="10" name="MobilenetV2/Conv/Conv2D/fq_weights_1/Convert_to_float/Cast_06875_const" type="Const" version="opset1">
			<data element_type="u8" offset="16" shape="16,3,3,3" size="432"/>
			<output>
				<port id="1" precision="U8">
					<dim>16</dim>
					<dim>3</dim>
					<dim>3</dim>
					<dim>3</dim>
				</port>
			</output>
		</layer>
		<layer id="11" name="MobilenetV2/Conv/Conv2D/fq_weights_1/Convert_to_float" type="Convert" version="opset1">
			<data destination_type="f16"/>
			<input>
				<port id="0">
					<dim>16</dim>
					<dim>3</dim>
					<dim>3</dim>
					<dim>3</dim>
				</port>
			</input>
			<output>
				<port id="1" precision="FP16">
					<dim>16</dim>
					<dim>3</dim>
					<dim>3</dim>
					<dim>3</dim>
				</port>
			</output>
		</layer>
		<layer id="12" name="MobilenetV2/Conv/Conv2D/fq_weights_1/Copy/out_low5817_const" type="Const" version="opset1">
			<data element_type="f16" offset="448" shape="1" size="2"/>
			<output>
				<port id="1" precision="FP16">
					<dim>1</dim>
				</port>
			</output>
		</layer>
		<layer id="13" name="MobilenetV2/Conv/Conv2D/fq_weights_1/Copy/out_high5818_const" type="Const" version="opset1">
			<data element_type="f16" offset="450" shape="1" size="2"/>
			<output>
				<port id="1" precision="FP16">
					<dim>1</dim>
				</port>
			</output>
		</layer>
		<layer id="14" name="18311835_const" type="Const" version="opset1">
			<data element_type="f16" offset="452" shape="16,1,1,1" size="32"/>
			<output>
				<port id="1" precision="FP16">
					<dim>16</dim>
					<dim>1</dim>
					<dim>1</dim>
					<dim>1</dim>
				</port>
			</output>
		</layer>
		<layer id="15" name="18321836_const" type="Const" version="opset1">
			<data element_type="f16" offset="484" shape="16,1,1,1" size="32"/>
			<output>
				<port id="1" precision="FP16">
					<dim>16</dim>
					<dim>1</dim>
					<dim>1</dim>
					<dim>1</dim>
				</port>
			</output>
		</layer>
		<layer id="16" name="MobilenetV2/Conv/Conv2D/fq_weights_1" type="FakeQuantize" version="opset1">
			<data levels="255"/>
			<input>
				<port id="0">
					<dim>16</dim>
					<dim>3</dim>
					<dim>3</dim>
					<dim>3</dim>
				</port>
				<port id="1">
					<dim>1</dim>
				</port>
				<port id="2">
					<dim>1</dim>
				</port>
				<port id="3">
					<dim>16</dim>
					<dim>1</dim>
					<dim>1</dim>
					<dim>1</dim>
				</port>
				<port id="4">
					<dim>16</dim>
					<dim>1</dim>
					<dim>1</dim>
					<dim>1</dim>
				</port>
			</input>
			<output>
				<port id="5" precision="FP16">
					<dim>16</dim>
					<dim>3</dim>
					<dim>3</dim>
					<dim>3</dim>
				</port>
			</output>
		</layer>
		<layer id="17" name="MobilenetV2/Conv/Conv2D" type="Convolution" version="opset1">
			<data auto_pad="same_upper" dilations="1,1" output_padding="0,0" pads_begin="0,0" pads_end="0,0" strides="2,2"/>
			<input>
				<port id="0">
					<dim>1</dim>
					<dim>3</dim>
					<dim>300</dim>
					<dim>300</dim>
				</port>
				<port id="1">
					<dim>16</dim>
					<dim>3</dim>
					<dim>3</dim>
					<dim>3</dim>
				</port>
			</input>
			<output>
				<port id="2" precision="FP16">
					<dim>1</dim>
					<dim>16</dim>
					<dim>150</dim>
					<dim>150</dim>
				</port>
			</output>
		</layer>
		<layer id="18" name="data_add_1189011895/copy_const423_const" type="Const" version="opset1">
			<data element_type="f16" offset="516" shape="1,16,1,1" size="32"/>
			<output>
				<port id="1" precision="FP16">
					<dim>1</dim>
					<dim>16</dim>
					<dim>1</dim>
					<dim>1</dim>
				</port>
			</output>
		</layer>
		<layer id="19" name="MobilenetV2/Conv/BatchNorm/FusedBatchNorm/variance/Fused_Add_" type="Add" version="opset1">
			<input>
				<port id="0">
					<dim>1</dim>
					<dim>16</dim>
					<dim>150</dim>
					<dim>150</dim>
				</port>
				<port id="1">
					<dim>1</dim>
					<dim>16</dim>
					<dim>1</dim>
					<dim>1</dim>
				</port>
			</input>
			<output>
				<port id="2" precision="FP16">
					<dim>1</dim>
					<dim>16</dim>
					<dim>150</dim>
					<dim>150</dim>
				</port>
			</output>
		</layer>
		<layer id="20" name="MobilenetV2/Conv/Relu6" type="Clamp" version="opset1">
			<data max="6" min="0"/>
			<input>
				<port id="0">
					<dim>1</dim>
					<dim>16</dim>
					<dim>150</dim>
					<dim>150</dim>
				</port>
			</input>
			<output>
				<port id="1" precision="FP16">
					<dim>1</dim>
					<dim>16</dim>
					<dim>150</dim>
					<dim>150</dim>
				</port>
			</output>
		</layer>
		<layer id="21" name="27092713_const" type="Const" version="opset1">
			<data element_type="f16" offset="448" shape="" size="2"/>
			<output>
				<port id="1" precision="FP16"/>
			</output>
		</layer>
		<layer id="22" name="27102714_const" type="Const" version="opset1">
			<data element_type="f16" offset="548" shape="" size="2"/>
			<output>
				<port id="1" precision="FP16"/>
			</output>
		</layer>
		<layer id="23" name="27112715_const" type="Const" version="opset1">
			<data element_type="f16" offset="448" shape="" size="2"/>
			<output>
				<port id="1" precision="FP16"/>
			</output>
		</layer>
		<layer id="24" name="27122716_const" type="Const" version="opset1">
			<data element_type="f16" offset="548" shape="" size="2"/>
			<output>
				<port id="1" precision="FP16"/>
			</output>
		</layer>
		<layer id="25" name="MobilenetV2/expanded_conv/add/fq_input_1" type="FakeQuantize" version="opset1">
			<data levels="256"/>
			<input>
				<port id="0">
					<dim>1</dim>
					<dim>16</dim>
					<dim>150</dim>
					<dim>150</dim>
				</port>
				<port id="1"/>
				<port id="2"/>
				<port id="3"/>
				<port id="4"/>
			</input>
			<output>
				<port id="5" precision="FP16">
					<dim>1</dim>
					<dim>16</dim>
					<dim>150</dim>
					<dim>150</dim>
				</port>
			</output>
		</layer>
		<layer id="26" name="MobilenetV2/expanded_conv/depthwise/depthwise/fq_weights_1/Convert_to_float/Cast_06855_const" type="Const" version="opset1">
			<data element_type="u8" offset="550" shape="16,1,3,3" size="144"/>
			<output>
				<port id="1" precision="U8">
					<dim>16</dim>
					<dim>1</dim>
					<dim>3</dim>
					<dim>3</dim>
				</port>
			</output>
		</layer>
		<layer id="27" name="MobilenetV2/expanded_conv/depthwise/depthwise/fq_weights_1/Convert_to_float" type="Convert" version="opset1">
			<data destination_type="f16"/>
			<input>
				<port id="0">
					<dim>16</dim>
					<dim>1</dim>
					<dim>3</dim>
					<dim>3</dim>
				</port>
			</input>
			<output>
				<port id="1" precision="FP16">
					<dim>16</dim>
					<dim>1</dim>
					<dim>3</dim>
					<dim>3</dim>
				</port>
			</output>
		</layer>
		<layer id="28" name="MobilenetV2/expanded_conv/depthwise/depthwise/fq_weights_1/Copy/out_low5489_const" type="Const" version="opset1">
			<data element_type="f16" offset="448" shape="1" size="2"/>
			<output>
				<port id="1" precision="FP16">
					<dim>1</dim>
				</port>
			</output>
		</layer>
		<layer id="29" name="MobilenetV2/expanded_conv/depthwise/depthwise/fq_weights_1/Copy/out_high5490_const" type="Const" version="opset1">
			<data element_type="f16" offset="450" shape="1" size="2"/>
			<output>
				<port id="1" precision="FP16">
					<dim>1</dim>
				</port>
			</output>
		</layer>
		<layer id="30" name="22512255_const" type="Const" version="opset1">
			<data element_type="f16" offset="694" shape="16,1,1,1" size="32"/>
			<output>
				<port id="1" precision="FP16">
					<dim>16</dim>
					<dim>1</dim>
					<dim>1</dim>
					<dim>1</dim>
				</port>
			</output>
		</layer>
		<layer id="31" name="22522256_const" type="Const" version="opset1">
			<data element_type="f16" offset="726" shape="16,1,1,1" size="32"/>
			<output>
				<port id="1" precision="FP16">
					<dim>16</dim>
					<dim>1</dim>
					<dim>1</dim>
					<dim>1</dim>
				</port>
			</output>
		</layer>
		<layer id="32" name="MobilenetV2/expanded_conv/depthwise/depthwise/fq_weights_1" type="FakeQuantize" version="opset1">
			<data levels="255"/>
			<input>
				<port id="0">
					<dim>16</dim>
					<dim>1</dim>
					<dim>3</dim>
					<dim>3</dim>
				</port>
				<port id="1">
					<dim>1</dim>
				</port>
				<port id="2">
					<dim>1</dim>
				</port>
				<port id="3">
					<dim>16</dim>
					<dim>1</dim>
					<dim>1</dim>
					<dim>1</dim>
				</port>
				<port id="4">
					<dim>16</dim>
					<dim>1</dim>
					<dim>1</dim>
					<dim>1</dim>
				</port>
			</input>
			<output>
				<port id="5" precision="FP16">
					<dim>16</dim>
					<dim>1</dim>
					<dim>3</dim>
					<dim>3</dim>
				</port>
			</output>
		</layer>
		<layer id="33" name="7680/value7682_const" type="Const" version="opset1">
			<data element_type="i64" offset="758" shape="5" size="40"/>
			<output>
				<port id="1" precision="I64">
					<dim>5</dim>
				</port>
			</output>
		</layer>
		<layer id="34" name="7680" type="Reshape" version="opset1">
			<data special_zero="True"/>
			<input>
				<port id="0">
					<dim>16</dim>
					<dim>1</dim>
					<dim>3</dim>
					<dim>3</dim>
				</port>
				<port id="1">
					<dim>5</dim>
				</port>
			</input>
			<output>
				<port id="2" precision="FP16">
					<dim>16</dim>
					<dim>1</dim>
					<dim>1</dim>
					<dim>3</dim>
					<dim>3</dim>
				</port>
			</output>
		</layer>
		<layer id="35" name="MobilenetV2/expanded_conv/depthwise/depthwise" type="GroupConvolution" version="opset1">
			<data auto_pad="same_upper" dilations="1,1" output_padding="0,0" pads_begin="0,0" pads_end="0,0" strides="1,1"/>
			<input>
				<port id="0">
					<dim>1</dim>
					<dim>16</dim>
					<dim>150</dim>
					<dim>150</dim>
				</port>
				<port id="1">
					<dim>16</dim>
					<dim>1</dim>
					<dim>1</dim>
					<dim>3</dim>
					<dim>3</dim>
				</port>
			</input>
			<output>
				<port id="2" precision="FP16">
					<dim>1</dim>
					<dim>16</dim>
					<dim>150</dim>
					<dim>150</dim>
				</port>
			</output>
		</layer>
		<layer id="36" name="data_add_1189811903/copy_const428_const" type="Const" version="opset1">
			<data element_type="f16" offset="798" shape="1,16,1,1" size="32"/>
			<output>
				<port id="1" precision="FP16">
					<dim>1</dim>
					<dim>16</dim>
					<dim>1</dim>
					<dim>1</dim>
				</port>
			</output>
		</layer>
		<layer id="37" name="MobilenetV2/expanded_conv/depthwise/BatchNorm/FusedBatchNorm/variance/Fused_Add_" type="Add" version="opset1">
			<input>
				<port id="0">
					<dim>1</dim>
					<dim>16</dim>
					<dim>150</dim>
					<dim>150</dim>
				</port>
				<port id="1">
					<dim>1</dim>
					<dim>16</dim>
					<dim>1</dim>
					<dim>1</dim>
				</port>
			</input>
			<output>
				<port id="2" precision="FP16">
					<dim>1</dim>
					<dim>16</dim>
					<dim>150</dim>
					<dim>150</dim>
				</port>
			</output>
		</layer>
		<layer id="38" name="MobilenetV2/expanded_conv/depthwise/Relu6" type="Clamp" version="opset1">
			<data max="6" min="0"/>
			<input>
				<port id="0">
					<dim>1</dim>
					<dim>16</dim>
					<dim>150</dim>
					<dim>150</dim>
				</port>
			</input>
			<output>
				<port id="1" precision="FP16">
					<dim>1</dim>
					<dim>16</dim>
					<dim>150</dim>
					<dim>150</dim>
				</port>
			</output>
		</layer>
		<layer id="39" name="27392743_const" type="Const" version="opset1">
			<data element_type="f16" offset="448" shape="" size="2"/>
			<output>
				<port id="1" precision="FP16"/>
			</output>
		</layer>
		<layer id="40" name="27402744_const" type="Const" version="opset1">
			<data element_type="f16" offset="548" shape="" size="2"/>
			<output>
				<port id="1" precision="FP16"/>
			</output>
		</layer>
		<layer id="41" name="27412745_const" type="Const" version="opset1">
			<data element_type="f16" offset="448" shape="" size="2"/>
			<output>
				<port id="1" precision="FP16"/>
			</output>
		</layer>
		<layer id="42" name="27422746_const" type="Const" version="opset1">
			<data element_type="f16" offset="548" shape="" size="2"/>
			<output>
				<port id="1" precision="FP16"/>
			</output>
		</layer>
		<layer id="43" name="MobilenetV2/expanded_conv/project/Conv2D/fq_input_0" type="FakeQuantize" version="opset1">
			<data levels="256"/>
			<input>
				<port id="0">
					<dim>1</dim>
					<dim>16</dim>
					<dim>150</dim>
					<dim>150</dim>
				</port>
				<port id="1"/>
				<port id="2"/>
				<port id="3"/>
				<port id="4"/>
			</input>
			<output>
				<port id="5" precision="FP16">
					<dim>1</dim>
					<dim>16</dim>
					<dim>150</dim>
					<dim>150</dim>
				</port>
			</output>
		</layer>
		<layer id="44" name="MobilenetV2/expanded_conv/project/Conv2D/fq_weights_1/Convert_to_float/Cast_06785_const" type="Const" version="opset1">
			<data element_type="u8" offset="830" shape="16,16,1,1" size="256"/>
			<output>
				<port id="1" precision="U8">
					<dim>16</dim>
					<dim>16</dim>
					<dim>1</dim>
					<dim>1</dim>
				</port>
			</output>
		</layer>
		<layer id="45" name="MobilenetV2/expanded_conv/project/Conv2D/fq_weights_1/Convert_to_float" type="Convert" version="opset1">
			<data destination_type="f16"/>
			<input>
				<port id="0">
					<dim>16</dim>
					<dim>16</dim>
					<dim>1</dim>
					<dim>1</dim>
				</port>
			</input>
			<output>
				<port id="1" precision="FP16">
					<dim>16</dim>
					<dim>16</dim>
					<dim>1</dim>
					<dim>1</dim>
				</port>
			</output>
		</layer>
		<layer id="46" name="MobilenetV2/expanded_conv/project/Conv2D/fq_weights_1/Copy/out_low5809_const" type="Const" version="opset1">
			<data element_type="f16" offset="448" shape="1" size="2"/>
			<output>
				<port id="1" precision="FP16">
					<dim>1</dim>
				</port>
			</output>
		</layer>
		<layer id="47" name="MobilenetV2/expanded_conv/project/Conv2D/fq_weights_1/Copy/out_high5810_const" type="Const" version="opset1">
			<data element_type="f16" offset="450" shape="1" size="2"/>
			<output>
				<port id="1" precision="FP16">
					<dim>1</dim>
				</port>
			</output>
		</layer>
		<layer id="48" name="27512755_const" type="Const" version="opset1">
			<data element_type="f16" offset="1086" shape="16,1,1,1" size="32"/>
			<output>
				<port id="1" precision="FP16">
					<dim>16</dim>
					<dim>1</dim>
					<dim>1</dim>
					<dim>1</dim>
				</port>
			</output>
		</layer>
		<layer id="49" name="27522756_const" type="Const" version="opset1">
			<data element_type="f16" offset="1118" shape="16,1,1,1" size="32"/>
			<output>
				<port id="1" precision="FP16">
					<dim>16</dim>
					<dim>1</dim>
					<dim>1</dim>
					<dim>1</dim>
				</port>
			</output>
		</layer>
		<layer id="50" name="MobilenetV2/expanded_conv/project/Conv2D/fq_weights_1" type="FakeQuantize" version="opset1">
			<data levels="255"/>
			<input>
				<port id="0">
					<dim>16</dim>
					<dim>16</dim>
					<dim>1</dim>
					<dim>1</dim>
				</port>
				<port id="1">
					<dim>1</dim>
				</port>
				<port id="2">
					<dim>1</dim>
				</port>
				<port id="3">
					<dim>16</dim>
					<dim>1</dim>
					<dim>1</dim>
					<dim>1</dim>
				</port>
				<port id="4">
					<dim>16</dim>
					<dim>1</dim>
					<dim>1</dim>
					<dim>1</dim>
				</port>
			</input>
			<output>
				<port id="5" precision="FP16">
					<dim>16</dim>
					<dim>16</dim>
					<dim>1</dim>
					<dim>1</dim>
				</port>
			</output>
		</layer>
		<layer id="51" name="MobilenetV2/expanded_conv/project/Conv2D" type="Convolution" version="opset1">
			<data auto_pad="same_upper" dilations="1,1" output_padding="0,0" pads_begin="0,0" pads_end="0,0" strides="1,1"/>
			<input>
				<port id="0">
					<dim>1</dim>
					<dim>16</dim>
					<dim>150</dim>
					<dim>150</dim>
				</port>
				<port id="1">
					<dim>16</dim>
					<dim>16</dim>
					<dim>1</dim>
					<dim>1</dim>
				</port>
			</input>
			<output>
				<port id="2" precision="FP16">
					<dim>1</dim>
					<dim>16</dim>
					<dim>150</dim>
					<dim>150</dim>
				</port>
			</output>
		</layer>
		<layer id="52" name="data_add_1190611911/copy_const433_const" type="Const" version="opset1">
			<data element_type="f16" offset="1150" shape="1,16,1,1" size="32"/>
			<output>
				<port id="1" precision="FP16">
					<dim>1</dim>
					<dim>16</dim>
					<dim>1</dim>
					<dim>1</dim>
				</port>
			</output>
		</layer>
		<layer id="53" name="MobilenetV2/expanded_conv/project/BatchNorm/FusedBatchNorm/variance/Fused_Add_" type="Add" version="opset1">
			<input>
				<port id="0">
					<dim>1</dim>
					<dim>16</dim>
					<dim>150</dim>
					<dim>150</dim>
				</port>
				<port id="1">
					<dim>1</dim>
					<dim>16</dim>
					<dim>1</dim>
					<dim>1</dim>
				</port>
			</input>
			<output>
				<port id="2" precision="FP16">
					<dim>1</dim>
					<dim>16</dim>
					<dim>150</dim>
					<dim>150</dim>
				</port>
			</output>
		</layer>
		<layer id="54" name="26992703_const" type="Const" version="opset1">
			<data element_type="f16" offset="1182" shape="" size="2"/>
			<output>
				<port id="1" precision="FP16"/>
			</output>
		</layer>
		<layer id="55" name="27002704_const" type="Const" version="opset1">
			<data element_type="f16" offset="1184" shape="" size="2"/>
			<output>
				<port id="1" precision="FP16"/>
			</output>
		</layer>
		<layer id="56" name="27012705_const" type="Const" version="opset1">
			<data element_type="f16" offset="1182" shape="" size="2"/>
			<output>
				<port id="1" precision="FP16"/>
			</output>
		</layer>
		<layer id="57" name="27022706_const" type="Const" version="opset1">
			<data element_type="f16" offset="1184" shape="" size="2"/>
			<output>
				<port id="1" precision="FP16"/>
			</output>
		</layer>
		<layer id="58" name="MobilenetV2/expanded_conv/add/fq_input_0" type="FakeQuantize" version="opset1">
			<data levels="256"/>
			<input>
				<port id="0">
					<dim>1</dim>
					<dim>16</dim>
					<dim>150</dim>
					<dim>150</dim>
				</port>
				<port id="1"/>
				<port id="2"/>
				<port id="3"/>
				<port id="4"/>
			</input>
			<output>
				<port id="5" precision="FP16">
					<dim>1</dim>
					<dim>16</dim>
					<dim>150</dim>
					<dim>150</dim>
				</port>
			</output>
		</layer>
		<layer id="59" name="MobilenetV2/expanded_conv/add" type="Add" version="opset1">
			<input>
				<port id="0">
					<dim>1</dim>
					<dim>16</dim>
					<dim>150</dim>
					<dim>150</dim>
				</port>
				<port id="1">
					<dim>1</dim>
					<dim>16</dim>
					<dim>150</dim>
					<dim>150</dim>
				</port>
			</input>
			<output>
				<port id="2" precision="FP16">
					<dim>1</dim>
					<dim>16</dim>
					<dim>150</dim>
					<dim>150</dim>
				</port>
			</output>
		</layer>
		<layer id="60" name="21392143_const" type="Const" version="opset1">
			<data element_type="f16" offset="1186" shape="" size="2"/>
			<output>
				<port id="1" precision="FP16"/>
			</output>
		</layer>
		<layer id="61" name="21402144_const" type="Const" version="opset1">
			<data element_type="f16" offset="1188" shape="" size="2"/>
			<output>
				<port id="1" precision="FP16"/>
			</output>
		</layer>
		<layer id="62" name="21412145_const" type="Const" version="opset1">
			<data element_type="f16" offset="1186" shape="" size="2"/>
			<output>
				<port id="1" precision="FP16"/>
			</output>
		</layer>
		<layer id="63" name="21422146_const" type="Const" version="opset1">
			<data element_type="f16" offset="1188" shape="" size="2"/>
			<output>
				<port id="1" precision="FP16"/>
			</output>
		</layer>
		<layer id="64" name="MobilenetV2/expanded_conv_1/expand/Conv2D/fq_input_0" type="FakeQuantize" version="opset1">
			<data levels="256"/>
			<input>
				<port id="0">
					<dim>1</dim>
					<dim>16</dim>
					<dim>150</dim>
					<dim>150</dim>
				</port>
				<port id="1"/>
				<port id="2"/>
				<port id="3"/>
				<port id="4"/>
			</input>
			<output>
				<port id="5" precision="FP16">
					<dim>1</dim>
					<dim>16</dim>
					<dim>150</dim>
					<dim>150</dim>
				</port>
			</output>
		</layer>
		<layer id="65" name="MobilenetV2/expanded_conv_1/expand/Conv2D/fq_weights_1/Convert_to_float/Cast_06737_const" type="Const" version="opset1">
			<data element_type="u8" offset="1190" shape="96,16,1,1" size="1536"/>
			<output>
				<port id="1" precision="U8">
					<dim>96</dim>
					<dim>16</dim>
					<dim>1</dim>
					<dim>1</dim>
				</port>
			</output>
		</layer>
		<layer id="66" name="MobilenetV2/expanded_conv_1/expand/Conv2D/fq_weights_1/Convert_to_float" type="Convert" version="opset1">
			<data destination_type="f16"/>
			<input>
				<port id="0">
					<dim>96</dim>
					<dim>16</dim>
					<dim>1</dim>
					<dim>1</dim>
				</port>
			</input>
			<output>
				<port id="1" precision="FP16">
					<dim>96</dim>
					<dim>16</dim>
					<dim>1</dim>
					<dim>1</dim>
				</port>
			</output>
		</layer>
		<layer id="67" name="MobilenetV2/expanded_conv_1/expand/Conv2D/fq_weights_1/Copy/out_low5593_const" type="Const" version="opset1">
			<data element_type="f16" offset="448" shape="1" size="2"/>
			<output>
				<port id="1" precision="FP16">
					<dim>1</dim>
				</port>
			</output>
		</layer>
		<layer id="68" name="MobilenetV2/expanded_conv_1/expand/Conv2D/fq_weights_1/Copy/out_high5594_const" type="Const" version="opset1">
			<data element_type="f16" offset="450" shape="1" size="2"/>
			<output>
				<port id="1" precision="FP16">
					<dim>1</dim>
				</port>
			</output>
		</layer>
		<layer id="69" name="21512155_const" type="Const" version="opset1">
			<data element_type="f16" offset="2726" shape="96,1,1,1" size="192"/>
			<output>
				<port id="1" precision="FP16">
					<dim>96</dim>
					<dim>1</dim>
					<dim>1</dim>
					<dim>1</dim>
				</port>
			</output>
		</layer>
		<layer id="70" name="21522156_const" type="Const" version="opset1">
			<data element_type="f16" offset="2918" shape="96,1,1,1" size="192"/>
			<output>
				<port id="1" precision="FP16">
					<dim>96</dim>
					<dim>1</dim>
					<dim>1</dim>
					<dim>1</dim>
				</port>
			</output>
		</layer>
		<layer id="71" name="MobilenetV2/expanded_conv_1/expand/Conv2D/fq_weights_1" type="FakeQuantize" version="opset1">
			<data levels="255"/>
			<input>
				<port id="0">
					<dim>96</dim>
					<dim>16</dim>
					<dim>1</dim>
					<dim>1</dim>
				</port>
				<port id="1">
					<dim>1</dim>
				</port>
				<port id="2">
					<dim>1</dim>
				</port>
				<port id="3">
					<dim>96</dim>
					<dim>1</dim>
					<dim>1</dim>
					<dim>1</dim>
				</port>
				<port id="4">
					<dim>96</dim>
					<dim>1</dim>
					<dim>1</dim>
					<dim>1</dim>
				</port>
			</input>
			<output>
				<port id="5" precision="FP16">
					<dim>96</dim>
					<dim>16</dim>
					<dim>1</dim>
					<dim>1</dim>
				</port>
			</output>
		</layer>
		<layer id="72" name="MobilenetV2/expanded_conv_1/expand/Conv2D" type="Convolution" version="opset1">
			<data auto_pad="same_upper" dilations="1,1" output_padding="0,0" pads_begin="0,0" pads_end="0,0" strides="1,1"/>
			<input>
				<port id="0">
					<dim>1</dim>
					<dim>16</dim>
					<dim>150</dim>
					<dim>150</dim>
				</port>
				<port id="1">
					<dim>96</dim>
					<dim>16</dim>
					<dim>1</dim>
					<dim>1</dim>
				</port>
			</input>
			<output>
				<port id="2" precision="FP16">
					<dim>1</dim>
					<dim>96</dim>
					<dim>150</dim>
					<dim>150</dim>
				</port>
			</output>
		</layer>
		<layer id="73" name="data_add_1191411919/copy_const438_const" type="Const" version="opset1">
			<data element_type="f16" offset="3110" shape="1,96,1,1" size="192"/>
			<output>
				<port id="1" precision="FP16">
					<dim>1</dim>
					<dim>96</dim>
					<dim>1</dim>
					<dim>1</dim>
				</port>
			</output>
		</layer>
		<layer id="74" name="MobilenetV2/expanded_conv_1/expand/BatchNorm/FusedBatchNorm/variance/Fused_Add_" type="Add" version="opset1">
			<input>
				<port id="0">
					<dim>1</dim>
					<dim>96</dim>
					<dim>150</dim>
					<dim>150</dim>
				</port>
				<port id="1">
					<dim>1</dim>
					<dim>96</dim>
					<dim>1</dim>
					<dim>1</dim>
				</port>
			</input>
			<output>
				<port id="2" precision="FP16">
					<dim>1</dim>
					<dim>96</dim>
					<dim>150</dim>
					<dim>150</dim>
				</port>
			</output>
		</layer>
		<layer id="75" name="MobilenetV2/expanded_conv_1/expand/Relu6" type="Clamp" version="opset1">
			<data max="6" min="0"/>
			<input>
				<port id="0">
					<dim>1</dim>
					<dim>96</dim>
					<dim>150</dim>
					<dim>150</dim>
				</port>
			</input>
			<output>
				<port id="1" precision="FP16">
					<dim>1</dim>
					<dim>96</dim>
					<dim>150</dim>
					<dim>150</dim>
				</port>
			</output>
		</layer>
		<layer id="76" name="17391743_const" type="Const" version="opset1">
			<data element_type="f16" offset="3302" shape="1,96,1,1" size="192"/>
			<output>
				<port id="1" precision="FP16">
					<dim>1</dim>
					<dim>96</dim>
					<dim>1</dim>
					<dim>1</dim>
				</port>
			</output>
		</layer>
		<layer id="77" name="17401744_const" type="Const" version="opset1">
			<data element_type="f16" offset="3494" shape="1,96,1,1" size="192"/>
			<output>
				<port id="1" precision="FP16">
					<dim>1</dim>
					<dim>96</dim>
					<dim>1</dim>
					<dim>1</dim>
				</port>
			</output>
		</layer>
		<layer id="78" name="17411745_const" type="Const" version="opset1">
			<data element_type="f16" offset="3302" shape="1,96,1,1" size="192"/>
			<output>
				<port id="1" precision="FP16">
					<dim>1</dim>
					<dim>96</dim>
					<dim>1</dim>
					<dim>1</dim>
				</port>
			</output>
		</layer>
		<layer id="79" name="17421746_const" type="Const" version="opset1">
			<data element_type="f16" offset="3494" shape="1,96,1,1" size="192"/>
			<output>
				<port id="1" precision="FP16">
					<dim>1</dim>
					<dim>96</dim>
					<dim>1</dim>
					<dim>1</dim>
				</port>
			</output>
		</layer>
		<layer id="80" name="MobilenetV2/expanded_conv_1/depthwise/depthwise/fq_input_0" type="FakeQuantize" version="opset1">
			<data levels="256"/>
			<input>
				<port id="0">
					<dim>1</dim>
					<dim>96</dim>
					<dim>150</dim>
					<dim>150</dim>
				</port>
				<port id="1">
					<dim>1</dim>
					<dim>96</dim>
					<dim>1</dim>
					<dim>1</dim>
				</port>
				<port id="2">
					<dim>1</dim>
					<dim>96</dim>
					<dim>1</dim>
					<dim>1</dim>
				</port>
				<port id="3">
					<dim>1</dim>
					<dim>96</dim>
					<dim>1</dim>
					<dim>1</dim>
				</port>
				<port id="4">
					<dim>1</dim>
					<dim>96</dim>
					<dim>1</dim>
					<dim>1</dim>
				</port>
			</input>
			<output>
				<port id="5" precision="FP16">
					<dim>1</dim>
					<dim>96</dim>
					<dim>150</dim>
					<dim>150</dim>
				</port>
			</output>
		</layer>
		<layer id="81" name="MobilenetV2/expanded_conv_1/depthwise/depthwise/fq_weights_1/Convert_to_float/Cast_06781_const" type="Const" version="opset1">
			<data element_type="u8" offset="3686" shape="96,1,3,3" size="864"/>
			<output>
				<port id="1" precision="U8">
					<dim>96</dim>
					<dim>1</dim>
					<dim>3</dim>
					<dim>3</dim>
				</port>
			</output>
		</layer>
		<layer id="82" name="MobilenetV2/expanded_conv_1/depthwise/depthwise/fq_weights_1/Convert_to_float" type="Convert" version="opset1">
			<data destination_type="f16"/>
			<input>
				<port id="0">
					<dim>96</dim>
					<dim>1</dim>
					<dim>3</dim>
					<dim>3</dim>
				</port>
			</input>
			<output>
				<port id="1" precision="FP16">
					<dim>96</dim>
					<dim>1</dim>
					<dim>3</dim>
					<dim>3</dim>
				</port>
			</output>
		</layer>
		<layer id="83" name="MobilenetV2/expanded_conv_1/depthwise/depthwise/fq_weights_1/Copy/out_low5641_const" type="Const" version="opset1">
			<data element_type="f16" offset="448" shape="1" size="2"/>
			<output>
				<port id="1" precision="FP16">
					<dim>1</dim>
				</port>
			</output>
		</layer>
		<layer id="84" name="MobilenetV2/expanded_conv_1/depthwise/depthwise/fq_weights_1/Copy/out_high5642_const" type="Const" version="opset1">
			<data element_type="f16" offset="450" shape="1" size="2"/>
			<output>
				<port id="1" precision="FP16">
					<dim>1</dim>
				</port>
			</output>
		</layer>
		<layer id="85" name="17511755_const" type="Const" version="opset1">
			<data element_type="f16" offset="4550" shape="96,1,1,1" size="192"/>
			<output>
				<port id="1" precision="FP16">
					<dim>96</dim>
					<dim>1</dim>
					<dim>1</dim>
					<dim>1</dim>
				</port>
			</output>
		</layer>
		<layer id="86" name="17521756_const" type="Const" version="opset1">
			<data element_type="f16" offset="4742" shape="96,1,1,1" size="192"/>
			<output>
				<port id="1" precision="FP16">
					<dim>96</dim>
					<dim>1</dim>
					<dim>1</dim>
					<dim>1</dim>
				</port>
			</output>
		</layer>
		<layer id="87" name="MobilenetV2/expanded_conv_1/depthwise/depthwise/fq_weights_1" type="FakeQuantize" version="opset1">
			<data levels="255"/>
			<input>
				<port id="0">
					<dim>96</dim>
					<dim>1</dim>
					<dim>3</dim>
					<dim>3</dim>
				</port>
				<port id="1">
					<dim>1</dim>
				</port>
				<port id="2">
					<dim>1</dim>
				</port>
				<port id="3">
					<dim>96</dim>
					<dim>1</dim>
					<dim>1</dim>
					<dim>1</dim>
				</port>
				<port id="4">
					<dim>96</dim>
					<dim>1</dim>
					<dim>1</dim>
					<dim>1</dim>
				</port>
			</input>
			<output>
				<port id="5" precision="FP16">
					<dim>96</dim>
					<dim>1</dim>
					<dim>3</dim>
					<dim>3</dim>
				</port>
			</output>
		</layer>
		<layer id="88" name="7676/value7678_const" type="Const" version="opset1">
			<data element_type="i64" offset="4934" shape="5" size="40"/>
			<output>
				<port id="1" precision="I64">
					<dim>5</dim>
				</port>
			</output>
		</layer>
		<layer id="89" name="7676" type="Reshape" version="opset1">
			<data special_zero="True"/>
			<input>
				<port id="0">
					<dim>96</dim>
					<dim>1</dim>
					<dim>3</dim>
					<dim>3</dim>
				</port>
				<port id="1">
					<dim>5</dim>
				</port>
			</input>
			<output>
				<port id="2" precision="FP16">
					<dim>96</dim>
					<dim>1</dim>
					<dim>1</dim>
					<dim>3</dim>
					<dim>3</dim>
				</port>
			</output>
		</layer>
		<layer id="90" name="MobilenetV2/expanded_conv_1/depthwise/depthwise" type="GroupConvolution" version="opset1">
			<data auto_pad="same_upper" dilations="1,1" output_padding="0,0" pads_begin="0,0" pads_end="0,0" strides="2,2"/>
			<input>
				<port id="0">
					<dim>1</dim>
					<dim>96</dim>
					<dim>150</dim>
					<dim>150</dim>
				</port>
				<port id="1">
					<dim>96</dim>
					<dim>1</dim>
					<dim>1</dim>
					<dim>3</dim>
					<dim>3</dim>
				</port>
			</input>
			<output>
				<port id="2" precision="FP16">
					<dim>1</dim>
					<dim>96</dim>
					<dim>75</dim>
					<dim>75</dim>
				</port>
			</output>
		</layer>
		<layer id="91" name="data_add_1192211927/copy_const443_const" type="Const" version="opset1">
			<data element_type="f16" offset="4974" shape="1,96,1,1" size="192"/>
			<output>
				<port id="1" precision="FP16">
					<dim>1</dim>
					<dim>96</dim>
					<dim>1</dim>
					<dim>1</dim>
				</port>
			</output>
		</layer>
		<layer id="92" name="MobilenetV2/expanded_conv_1/depthwise/BatchNorm/FusedBatchNorm/variance/Fused_Add_" type="Add" version="opset1">
			<input>
				<port id="0">
					<dim>1</dim>
					<dim>96</dim>
					<dim>75</dim>
					<dim>75</dim>
				</port>
				<port id="1">
					<dim>1</dim>
					<dim>96</dim>
					<dim>1</dim>
					<dim>1</dim>
				</port>
			</input>
			<output>
				<port id="2" precision="FP16">
					<dim>1</dim>
					<dim>96</dim>
					<dim>75</dim>
					<dim>75</dim>
				</port>
			</output>
		</layer>
		<layer id="93" name="MobilenetV2/expanded_conv_1/depthwise/Relu6" type="Clamp" version="opset1">
			<data max="6" min="0"/>
			<input>
				<port id="0">
					<dim>1</dim>
					<dim>96</dim>
					<dim>75</dim>
					<dim>75</dim>
				</port>
			</input>
			<output>
				<port id="1" precision="FP16">
					<dim>1</dim>
					<dim>96</dim>
					<dim>75</dim>
					<dim>75</dim>
				</port>
			</output>
		</layer>
		<layer id="94" name="19992003_const" type="Const" version="opset1">
			<data element_type="f16" offset="448" shape="" size="2"/>
			<output>
				<port id="1" precision="FP16"/>
			</output>
		</layer>
		<layer id="95" name="20002004_const" type="Const" version="opset1">
			<data element_type="f16" offset="548" shape="" size="2"/>
			<output>
				<port id="1" precision="FP16"/>
			</output>
		</layer>
		<layer id="96" name="20012005_const" type="Const" version="opset1">
			<data element_type="f16" offset="448" shape="" size="2"/>
			<output>
				<port id="1" precision="FP16"/>
			</output>
		</layer>
		<layer id="97" name="20022006_const" type="Const" version="opset1">
			<data element_type="f16" offset="548" shape="" size="2"/>
			<output>
				<port id="1" precision="FP16"/>
			</output>
		</layer>
		<layer id="98" name="MobilenetV2/expanded_conv_1/project/Conv2D/fq_input_0" type="FakeQuantize" version="opset1">
			<data levels="256"/>
			<input>
				<port id="0">
					<dim>1</dim>
					<dim>96</dim>
					<dim>75</dim>
					<dim>75</dim>
				</port>
				<port id="1"/>
				<port id="2"/>
				<port id="3"/>
				<port id="4"/>
			</input>
			<output>
				<port id="5" precision="FP16">
					<dim>1</dim>
					<dim>96</dim>
					<dim>75</dim>
					<dim>75</dim>
				</port>
			</output>
		</layer>
		<layer id="99" name="MobilenetV2/expanded_conv_1/project/Conv2D/fq_weights_1/Convert_to_float/Cast_06827_const" type="Const" version="opset1">
			<data element_type="u8" offset="5166" shape="16,96,1,1" size="1536"/>
			<output>
				<port id="1" precision="U8">
					<dim>16</dim>
					<dim>96</dim>
					<dim>1</dim>
					<dim>1</dim>
				</port>
			</output>
		</layer>
		<layer id="100" name="MobilenetV2/expanded_conv_1/project/Conv2D/fq_weights_1/Convert_to_float" type="Convert" version="opset1">
			<data destination_type="f16"/>
			<input>
				<port id="0">
					<dim>16</dim>
					<dim>96</dim>
					<dim>1</dim>
					<dim>1</dim>
				</port>
			</input>
			<output>
				<port id="1" precision="FP16">
					<dim>16</dim>
					<dim>96</dim>
					<dim>1</dim>
					<dim>1</dim>
				</port>
			</output>
		</layer>
		<layer id="101" name="MobilenetV2/expanded_conv_1/project/Conv2D/fq_weights_1/Copy/out_low5929_const" type="Const" version="opset1">
			<data element_type="f16" offset="448" shape="1" size="2"/>
			<output>
				<port id="1" precision="FP16">
					<dim>1</dim>
				</port>
			</output>
		</layer>
		<layer id="102" name="MobilenetV2/expanded_conv_1/project/Conv2D/fq_weights_1/Copy/out_high5930_const" type="Const" version="opset1">
			<data element_type="f16" offset="450" shape="1" size="2"/>
			<output>
				<port id="1" precision="FP16">
					<dim>1</dim>
				</port>
			</output>
		</layer>
		<layer id="103" name="20112015_const" type="Const" version="opset1">
			<data element_type="f16" offset="6702" shape="16,1,1,1" size="32"/>
			<output>
				<port id="1" precision="FP16">
					<dim>16</dim>
					<dim>1</dim>
					<dim>1</dim>
					<dim>1</dim>
				</port>
			</output>
		</layer>
		<layer id="104" name="20122016_const" type="Const" version="opset1">
			<data element_type="f16" offset="6734" shape="16,1,1,1" size="32"/>
			<output>
				<port id="1" precision="FP16">
					<dim>16</dim>
					<dim>1</dim>
					<dim>1</dim>
					<dim>1</dim>
				</port>
			</output>
		</layer>
		<layer id="105" name="MobilenetV2/expanded_conv_1/project/Conv2D/fq_weights_1" type="FakeQuantize" version="opset1">
			<data levels="255"/>
			<input>
				<port id="0">
					<dim>16</dim>
					<dim>96</dim>
					<dim>1</dim>
					<dim>1</dim>
				</port>
				<port id="1">
					<dim>1</dim>
				</port>
				<port id="2">
					<dim>1</dim>
				</port>
				<port id="3">
					<dim>16</dim>
					<dim>1</dim>
					<dim>1</dim>
					<dim>1</dim>
				</port>
				<port id="4">
					<dim>16</dim>
					<dim>1</dim>
					<dim>1</dim>
					<dim>1</dim>
				</port>
			</input>
			<output>
				<port id="5" precision="FP16">
					<dim>16</dim>
					<dim>96</dim>
					<dim>1</dim>
					<dim>1</dim>
				</port>
			</output>
		</layer>
		<layer id="106" name="MobilenetV2/expanded_conv_1/project/Conv2D" type="Convolution" version="opset1">
			<data auto_pad="same_upper" dilations="1,1" output_padding="0,0" pads_begin="0,0" pads_end="0,0" strides="1,1"/>
			<input>
				<port id="0">
					<dim>1</dim>
					<dim>96</dim>
					<dim>75</dim>
					<dim>75</dim>
				</port>
				<port id="1">
					<dim>16</dim>
					<dim>96</dim>
					<dim>1</dim>
					<dim>1</dim>
				</port>
			</input>
			<output>
				<port id="2" precision="FP16">
					<dim>1</dim>
					<dim>16</dim>
					<dim>75</dim>
					<dim>75</dim>
				</port>
			</output>
		</layer>
		<layer id="107" name="data_add_1193011935/copy_const448_const" type="Const" version="opset1">
			<data element_type="f16" offset="6766" shape="1,16,1,1" size="32"/>
			<output>
				<port id="1" precision="FP16">
					<dim>1</dim>
					<dim>16</dim>
					<dim>1</dim>
					<dim>1</dim>
				</port>
			</output>
		</layer>
		<layer id="108" name="MobilenetV2/expanded_conv_1/project/BatchNorm/FusedBatchNorm/variance/Fused_Add_" type="Add" version="opset1">
			<input>
				<port id="0">
					<dim>1</dim>
					<dim>16</dim>
					<dim>75</dim>
					<dim>75</dim>
				</port>
				<port id="1">
					<dim>1</dim>
					<dim>16</dim>
					<dim>1</dim>
					<dim>1</dim>
				</port>
			</input>
			<output>
				<port id="2" precision="FP16">
					<dim>1</dim>
					<dim>16</dim>
					<dim>75</dim>
					<dim>75</dim>
				</port>
			</output>
		</layer>
		<layer id="109" name="18891893_const" type="Const" version="opset1">
			<data element_type="f16" offset="6798" shape="" size="2"/>
			<output>
				<port id="1" precision="FP16"/>
			</output>
		</layer>
		<layer id="110" name="18901894_const" type="Const" version="opset1">
			<data element_type="f16" offset="6800" shape="" size="2"/>
			<output>
				<port id="1" precision="FP16"/>
			</output>
		</layer>
		<layer id="111" name="18911895_const" type="Const" version="opset1">
			<data element_type="f16" offset="6798" shape="" size="2"/>
			<output>
				<port id="1" precision="FP16"/>
			</output>
		</layer>
		<layer id="112" name="18921896_const" type="Const" version="opset1">
			<data element_type="f16" offset="6800" shape="" size="2"/>
			<output>
				<port id="1" precision="FP16"/>
			</output>
		</layer>
		<layer id="113" name="MobilenetV2/expanded_conv_2/add/fq_input_1" type="FakeQuantize" version="opset1">
			<data levels="256"/>
			<input>
				<port id="0">
					<dim>1</dim>
					<dim>16</dim>
					<dim>75</dim>
					<dim>75</dim>
				</port>
				<port id="1"/>
				<port id="2"/>
				<port id="3"/>
				<port id="4"/>
			</input>
			<output>
				<port id="5" precision="FP16">
					<dim>1</dim>
					<dim>16</dim>
					<dim>75</dim>
					<dim>75</dim>
				</port>
			</output>
		</layer>
		<layer id="114" name="MobilenetV2/expanded_conv_2/expand/Conv2D/fq_weights_1/Convert_to_float/Cast_06779_const" type="Const" version="opset1">
			<data element_type="u8" offset="6802" shape="96,16,1,1" size="1536"/>
			<output>
				<port id="1" precision="U8">
					<dim>96</dim>
					<dim>16</dim>
					<dim>1</dim>
					<dim>1</dim>
				</port>
			</output>
		</layer>
		<layer id="115" name="MobilenetV2/expanded_conv_2/expand/Conv2D/fq_weights_1/Convert_to_float" type="Convert" version="opset1">
			<data destination_type="f16"/>
			<input>
				<port id="0">
					<dim>96</dim>
					<dim>16</dim>
					<dim>1</dim>
					<dim>1</dim>
				</port>
			</input>
			<output>
				<port id="1" precision="FP16">
					<dim>96</dim>
					<dim>16</dim>
					<dim>1</dim>
					<dim>1</dim>
				</port>
			</output>
		</layer>
		<layer id="116" name="MobilenetV2/expanded_conv_2/expand/Conv2D/fq_weights_1/Copy/out_low5433_const" type="Const" version="opset1">
			<data element_type="f16" offset="448" shape="1" size="2"/>
			<output>
				<port id="1" precision="FP16">
					<dim>1</dim>
				</port>
			</output>
		</layer>
		<layer id="117" name="MobilenetV2/expanded_conv_2/expand/Conv2D/fq_weights_1/Copy/out_high5434_const" type="Const" version="opset1">
			<data element_type="f16" offset="450" shape="1" size="2"/>
			<output>
				<port id="1" precision="FP16">
					<dim>1</dim>
				</port>
			</output>
		</layer>
		<layer id="118" name="21912195_const" type="Const" version="opset1">
			<data element_type="f16" offset="8338" shape="96,1,1,1" size="192"/>
			<output>
				<port id="1" precision="FP16">
					<dim>96</dim>
					<dim>1</dim>
					<dim>1</dim>
					<dim>1</dim>
				</port>
			</output>
		</layer>
		<layer id="119" name="21922196_const" type="Const" version="opset1">
			<data element_type="f16" offset="8530" shape="96,1,1,1" size="192"/>
			<output>
				<port id="1" precision="FP16">
					<dim>96</dim>
					<dim>1</dim>
					<dim>1</dim>
					<dim>1</dim>
				</port>
			</output>
		</layer>
		<layer id="120" name="MobilenetV2/expanded_conv_2/expand/Conv2D/fq_weights_1" type="FakeQuantize" version="opset1">
			<data levels="255"/>
			<input>
				<port id="0">
					<dim>96</dim>
					<dim>16</dim>
					<dim>1</dim>
					<dim>1</dim>
				</port>
				<port id="1">
					<dim>1</dim>
				</port>
				<port id="2">
					<dim>1</dim>
				</port>
				<port id="3">
					<dim>96</dim>
					<dim>1</dim>
					<dim>1</dim>
					<dim>1</dim>
				</port>
				<port id="4">
					<dim>96</dim>
					<dim>1</dim>
					<dim>1</dim>
					<dim>1</dim>
				</port>
			</input>
			<output>
				<port id="5" precision="FP16">
					<dim>96</dim>
					<dim>16</dim>
					<dim>1</dim>
					<dim>1</dim>
				</port>
			</output>
		</layer>
		<layer id="121" name="MobilenetV2/expanded_conv_2/expand/Conv2D" type="Convolution" version="opset1">
			<data auto_pad="same_upper" dilations="1,1" output_padding="0,0" pads_begin="0,0" pads_end="0,0" strides="1,1"/>
			<input>
				<port id="0">
					<dim>1</dim>
					<dim>16</dim>
					<dim>75</dim>
					<dim>75</dim>
				</port>
				<port id="1">
					<dim>96</dim>
					<dim>16</dim>
					<dim>1</dim>
					<dim>1</dim>
				</port>
			</input>
			<output>
				<port id="2" precision="FP16">
					<dim>1</dim>
					<dim>96</dim>
					<dim>75</dim>
					<dim>75</dim>
				</port>
			</output>
		</layer>
		<layer id="122" name="data_add_1193811943/copy_const452_const" type="Const" version="opset1">
			<data element_type="f16" offset="8722" shape="1,96,1,1" size="192"/>
			<output>
				<port id="1" precision="FP16">
					<dim>1</dim>
					<dim>96</dim>
					<dim>1</dim>
					<dim>1</dim>
				</port>
			</output>
		</layer>
		<layer id="123" name="MobilenetV2/expanded_conv_2/expand/BatchNorm/FusedBatchNorm/variance/Fused_Add_" type="Add" version="opset1">
			<input>
				<port id="0">
					<dim>1</dim>
					<dim>96</dim>
					<dim>75</dim>
					<dim>75</dim>
				</port>
				<port id="1">
					<dim>1</dim>
					<dim>96</dim>
					<dim>1</dim>
					<dim>1</dim>
				</port>
			</input>
			<output>
				<port id="2" precision="FP16">
					<dim>1</dim>
					<dim>96</dim>
					<dim>75</dim>
					<dim>75</dim>
				</port>
			</output>
		</layer>
		<layer id="124" name="MobilenetV2/expanded_conv_2/expand/Relu6" type="Clamp" version="opset1">
			<data max="6" min="0"/>
			<input>
				<port id="0">
					<dim>1</dim>
					<dim>96</dim>
					<dim>75</dim>
					<dim>75</dim>
				</port>
			</input>
			<output>
				<port id="1" precision="FP16">
					<dim>1</dim>
					<dim>96</dim>
					<dim>75</dim>
					<dim>75</dim>
				</port>
			</output>
		</layer>
		<layer id="125" name="13791383_const" type="Const" version="opset1">
			<data element_type="f16" offset="3302" shape="1,96,1,1" size="192"/>
			<output>
				<port id="1" precision="FP16">
					<dim>1</dim>
					<dim>96</dim>
					<dim>1</dim>
					<dim>1</dim>
				</port>
			</output>
		</layer>
		<layer id="126" name="13801384_const" type="Const" version="opset1">
			<data element_type="f16" offset="8914" shape="1,96,1,1" size="192"/>
			<output>
				<port id="1" precision="FP16">
					<dim>1</dim>
					<dim>96</dim>
					<dim>1</dim>
					<dim>1</dim>
				</port>
			</output>
		</layer>
		<layer id="127" name="13811385_const" type="Const" version="opset1">
			<data element_type="f16" offset="3302" shape="1,96,1,1" size="192"/>
			<output>
				<port id="1" precision="FP16">
					<dim>1</dim>
					<dim>96</dim>
					<dim>1</dim>
					<dim>1</dim>
				</port>
			</output>
		</layer>
		<layer id="128" name="13821386_const" type="Const" version="opset1">
			<data element_type="f16" offset="8914" shape="1,96,1,1" size="192"/>
			<output>
				<port id="1" precision="FP16">
					<dim>1</dim>
					<dim>96</dim>
					<dim>1</dim>
					<dim>1</dim>
				</port>
			</output>
		</layer>
		<layer id="129" name="MobilenetV2/expanded_conv_2/depthwise/depthwise/fq_input_0" type="FakeQuantize" version="opset1">
			<data levels="256"/>
			<input>
				<port id="0">
					<dim>1</dim>
					<dim>96</dim>
					<dim>75</dim>
					<dim>75</dim>
				</port>
				<port id="1">
					<dim>1</dim>
					<dim>96</dim>
					<dim>1</dim>
					<dim>1</dim>
				</port>
				<port id="2">
					<dim>1</dim>
					<dim>96</dim>
					<dim>1</dim>
					<dim>1</dim>
				</port>
				<port id="3">
					<dim>1</dim>
					<dim>96</dim>
					<dim>1</dim>
					<dim>1</dim>
				</port>
				<port id="4">
					<dim>1</dim>
					<dim>96</dim>
					<dim>1</dim>
					<dim>1</dim>
				</port>
			</input>
			<output>
				<port id="5" precision="FP16">
					<dim>1</dim>
					<dim>96</dim>
					<dim>75</dim>
					<dim>75</dim>
				</port>
			</output>
		</layer>
		<layer id="130" name="MobilenetV2/expanded_conv_2/depthwise/depthwise/fq_weights_1/Convert_to_float/Cast_06809_const" type="Const" version="opset1">
			<data element_type="u8" offset="9106" shape="96,1,3,3" size="864"/>
			<output>
				<port id="1" precision="U8">
					<dim>96</dim>
					<dim>1</dim>
					<dim>3</dim>
					<dim>3</dim>
				</port>
			</output>
		</layer>
		<layer id="131" name="MobilenetV2/expanded_conv_2/depthwise/depthwise/fq_weights_1/Convert_to_float" type="Convert" version="opset1">
			<data destination_type="f16"/>
			<input>
				<port id="0">
					<dim>96</dim>
					<dim>1</dim>
					<dim>3</dim>
					<dim>3</dim>
				</port>
			</input>
			<output>
				<port id="1" precision="FP16">
					<dim>96</dim>
					<dim>1</dim>
					<dim>3</dim>
					<dim>3</dim>
				</port>
			</output>
		</layer>
		<layer id="132" name="MobilenetV2/expanded_conv_2/depthwise/depthwise/fq_weights_1/Copy/out_low5665_const" type="Const" version="opset1">
			<data element_type="f16" offset="448" shape="1" size="2"/>
			<output>
				<port id="1" precision="FP16">
					<dim>1</dim>
				</port>
			</output>
		</layer>
		<layer id="133" name="MobilenetV2/expanded_conv_2/depthwise/depthwise/fq_weights_1/Copy/out_high5666_const" type="Const" version="opset1">
			<data element_type="f16" offset="450" shape="1" size="2"/>
			<output>
				<port id="1" precision="FP16">
					<dim>1</dim>
				</port>
			</output>
		</layer>
		<layer id="134" name="13911395_const" type="Const" version="opset1">
			<data element_type="f16" offset="9970" shape="96,1,1,1" size="192"/>
			<output>
				<port id="1" precision="FP16">
					<dim>96</dim>
					<dim>1</dim>
					<dim>1</dim>
					<dim>1</dim>
				</port>
			</output>
		</layer>
		<layer id="135" name="13921396_const" type="Const" version="opset1">
			<data element_type="f16" offset="10162" shape="96,1,1,1" size="192"/>
			<output>
				<port id="1" precision="FP16">
					<dim>96</dim>
					<dim>1</dim>
					<dim>1</dim>
					<dim>1</dim>
				</port>
			</output>
		</layer>
		<layer id="136" name="MobilenetV2/expanded_conv_2/depthwise/depthwise/fq_weights_1" type="FakeQuantize" version="opset1">
			<data levels="255"/>
			<input>
				<port id="0">
					<dim>96</dim>
					<dim>1</dim>
					<dim>3</dim>
					<dim>3</dim>
				</port>
				<port id="1">
					<dim>1</dim>
				</port>
				<port id="2">
					<dim>1</dim>
				</port>
				<port id="3">
					<dim>96</dim>
					<dim>1</dim>
					<dim>1</dim>
					<dim>1</dim>
				</port>
				<port id="4">
					<dim>96</dim>
					<dim>1</dim>
					<dim>1</dim>
					<dim>1</dim>
				</port>
			</input>
			<output>
				<port id="5" precision="FP16">
					<dim>96</dim>
					<dim>1</dim>
					<dim>3</dim>
					<dim>3</dim>
				</port>
			</output>
		</layer>
		<layer id="137" name="7664/value7666_const" type="Const" version="opset1">
			<data element_type="i64" offset="4934" shape="5" size="40"/>
			<output>
				<port id="1" precision="I64">
					<dim>5</dim>
				</port>
			</output>
		</layer>
		<layer id="138" name="7664" type="Reshape" version="opset1">
			<data special_zero="True"/>
			<input>
				<port id="0">
					<dim>96</dim>
					<dim>1</dim>
					<dim>3</dim>
					<dim>3</dim>
				</port>
				<port id="1">
					<dim>5</dim>
				</port>
			</input>
			<output>
				<port id="2" precision="FP16">
					<dim>96</dim>
					<dim>1</dim>
					<dim>1</dim>
					<dim>3</dim>
					<dim>3</dim>
				</port>
			</output>
		</layer>
		<layer id="139" name="MobilenetV2/expanded_conv_2/depthwise/depthwise" type="GroupConvolution" version="opset1">
			<data auto_pad="same_upper" dilations="1,1" output_padding="0,0" pads_begin="0,0" pads_end="0,0" strides="1,1"/>
			<input>
				<port id="0">
					<dim>1</dim>
					<dim>96</dim>
					<dim>75</dim>
					<dim>75</dim>
				</port>
				<port id="1">
					<dim>96</dim>
					<dim>1</dim>
					<dim>1</dim>
					<dim>3</dim>
					<dim>3</dim>
				</port>
			</input>
			<output>
				<port id="2" precision="FP16">
					<dim>1</dim>
					<dim>96</dim>
					<dim>75</dim>
					<dim>75</dim>
				</port>
			</output>
		</layer>
		<layer id="140" name="data_add_1194611951/copy_const457_const" type="Const" version="opset1">
			<data element_type="f16" offset="10354" shape="1,96,1,1" size="192"/>
			<output>
				<port id="1" precision="FP16">
					<dim>1</dim>
					<dim>96</dim>
					<dim>1</dim>
					<dim>1</dim>
				</port>
			</output>
		</layer>
		<layer id="141" name="MobilenetV2/expanded_conv_2/depthwise/BatchNorm/FusedBatchNorm/variance/Fused_Add_" type="Add" version="opset1">
			<input>
				<port id="0">
					<dim>1</dim>
					<dim>96</dim>
					<dim>75</dim>
					<dim>75</dim>
				</port>
				<port id="1">
					<dim>1</dim>
					<dim>96</dim>
					<dim>1</dim>
					<dim>1</dim>
				</port>
			</input>
			<output>
				<port id="2" precision="FP16">
					<dim>1</dim>
					<dim>96</dim>
					<dim>75</dim>
					<dim>75</dim>
				</port>
			</output>
		</layer>
		<layer id="142" name="MobilenetV2/expanded_conv_2/depthwise/Relu6" type="Clamp" version="opset1">
			<data max="6" min="0"/>
			<input>
				<port id="0">
					<dim>1</dim>
					<dim>96</dim>
					<dim>75</dim>
					<dim>75</dim>
				</port>
			</input>
			<output>
				<port id="1" precision="FP16">
					<dim>1</dim>
					<dim>96</dim>
					<dim>75</dim>
					<dim>75</dim>
				</port>
			</output>
		</layer>
		<layer id="143" name="26392643_const" type="Const" version="opset1">
			<data element_type="f16" offset="448" shape="" size="2"/>
			<output>
				<port id="1" precision="FP16"/>
			</output>
		</layer>
		<layer id="144" name="26402644_const" type="Const" version="opset1">
			<data element_type="f16" offset="548" shape="" size="2"/>
			<output>
				<port id="1" precision="FP16"/>
			</output>
		</layer>
		<layer id="145" name="26412645_const" type="Const" version="opset1">
			<data element_type="f16" offset="448" shape="" size="2"/>
			<output>
				<port id="1" precision="FP16"/>
			</output>
		</layer>
		<layer id="146" name="26422646_const" type="Const" version="opset1">
			<data element_type="f16" offset="548" shape="" size="2"/>
			<output>
				<port id="1" precision="FP16"/>
			</output>
		</layer>
		<layer id="147" name="MobilenetV2/expanded_conv_2/project/Conv2D/fq_input_0" type="FakeQuantize" version="opset1">
			<data levels="256"/>
			<input>
				<port id="0">
					<dim>1</dim>
					<dim>96</dim>
					<dim>75</dim>
					<dim>75</dim>
				</port>
				<port id="1"/>
				<port id="2"/>
				<port id="3"/>
				<port id="4"/>
			</input>
			<output>
				<port id="5" precision="FP16">
					<dim>1</dim>
					<dim>96</dim>
					<dim>75</dim>
					<dim>75</dim>
				</port>
			</output>
		</layer>
		<layer id="148" name="MobilenetV2/expanded_conv_2/project/Conv2D/fq_weights_1/Convert_to_float/Cast_06745_const" type="Const" version="opset1">
			<data element_type="u8" offset="10546" shape="16,96,1,1" size="1536"/>
			<output>
				<port id="1" precision="U8">
					<dim>16</dim>
					<dim>96</dim>
					<dim>1</dim>
					<dim>1</dim>
				</port>
			</output>
		</layer>
		<layer id="149" name="MobilenetV2/expanded_conv_2/project/Conv2D/fq_weights_1/Convert_to_float" type="Convert" version="opset1">
			<data destination_type="f16"/>
			<input>
				<port id="0">
					<dim>16</dim>
					<dim>96</dim>
					<dim>1</dim>
					<dim>1</dim>
				</port>
			</input>
			<output>
				<port id="1" precision="FP16">
					<dim>16</dim>
					<dim>96</dim>
					<dim>1</dim>
					<dim>1</dim>
				</port>
			</output>
		</layer>
		<layer id="150" name="MobilenetV2/expanded_conv_2/project/Conv2D/fq_weights_1/Copy/out_low5881_const" type="Const" version="opset1">
			<data element_type="f16" offset="448" shape="1" size="2"/>
			<output>
				<port id="1" precision="FP16">
					<dim>1</dim>
				</port>
			</output>
		</layer>
		<layer id="151" name="MobilenetV2/expanded_conv_2/project/Conv2D/fq_weights_1/Copy/out_high5882_const" type="Const" version="opset1">
			<data element_type="f16" offset="450" shape="1" size="2"/>
			<output>
				<port id="1" precision="FP16">
					<dim>1</dim>
				</port>
			</output>
		</layer>
		<layer id="152" name="26512655_const" type="Const" version="opset1">
			<data element_type="f16" offset="12082" shape="16,1,1,1" size="32"/>
			<output>
				<port id="1" precision="FP16">
					<dim>16</dim>
					<dim>1</dim>
					<dim>1</dim>
					<dim>1</dim>
				</port>
			</output>
		</layer>
		<layer id="153" name="26522656_const" type="Const" version="opset1">
			<data element_type="f16" offset="12114" shape="16,1,1,1" size="32"/>
			<output>
				<port id="1" precision="FP16">
					<dim>16</dim>
					<dim>1</dim>
					<dim>1</dim>
					<dim>1</dim>
				</port>
			</output>
		</layer>
		<layer id="154" name="MobilenetV2/expanded_conv_2/project/Conv2D/fq_weights_1" type="FakeQuantize" version="opset1">
			<data levels="255"/>
			<input>
				<port id="0">
					<dim>16</dim>
					<dim>96</dim>
					<dim>1</dim>
					<dim>1</dim>
				</port>
				<port id="1">
					<dim>1</dim>
				</port>
				<port id="2">
					<dim>1</dim>
				</port>
				<port id="3">
					<dim>16</dim>
					<dim>1</dim>
					<dim>1</dim>
					<dim>1</dim>
				</port>
				<port id="4">
					<dim>16</dim>
					<dim>1</dim>
					<dim>1</dim>
					<dim>1</dim>
				</port>
			</input>
			<output>
				<port id="5" precision="FP16">
					<dim>16</dim>
					<dim>96</dim>
					<dim>1</dim>
					<dim>1</dim>
				</port>
			</output>
		</layer>
		<layer id="155" name="MobilenetV2/expanded_conv_2/project/Conv2D" type="Convolution" version="opset1">
			<data auto_pad="same_upper" dilations="1,1" output_padding="0,0" pads_begin="0,0" pads_end="0,0" strides="1,1"/>
			<input>
				<port id="0">
					<dim>1</dim>
					<dim>96</dim>
					<dim>75</dim>
					<dim>75</dim>
				</port>
				<port id="1">
					<dim>16</dim>
					<dim>96</dim>
					<dim>1</dim>
					<dim>1</dim>
				</port>
			</input>
			<output>
				<port id="2" precision="FP16">
					<dim>1</dim>
					<dim>16</dim>
					<dim>75</dim>
					<dim>75</dim>
				</port>
			</output>
		</layer>
		<layer id="156" name="data_add_1195411959/copy_const462_const" type="Const" version="opset1">
			<data element_type="f16" offset="12146" shape="1,16,1,1" size="32"/>
			<output>
				<port id="1" precision="FP16">
					<dim>1</dim>
					<dim>16</dim>
					<dim>1</dim>
					<dim>1</dim>
				</port>
			</output>
		</layer>
		<layer id="157" name="MobilenetV2/expanded_conv_2/project/BatchNorm/FusedBatchNorm/variance/Fused_Add_" type="Add" version="opset1">
			<input>
				<port id="0">
					<dim>1</dim>
					<dim>16</dim>
					<dim>75</dim>
					<dim>75</dim>
				</port>
				<port id="1">
					<dim>1</dim>
					<dim>16</dim>
					<dim>1</dim>
					<dim>1</dim>
				</port>
			</input>
			<output>
				<port id="2" precision="FP16">
					<dim>1</dim>
					<dim>16</dim>
					<dim>75</dim>
					<dim>75</dim>
				</port>
			</output>
		</layer>
		<layer id="158" name="18791883_const" type="Const" version="opset1">
			<data element_type="f16" offset="12178" shape="" size="2"/>
			<output>
				<port id="1" precision="FP16"/>
			</output>
		</layer>
		<layer id="159" name="18801884_const" type="Const" version="opset1">
			<data element_type="f16" offset="12180" shape="" size="2"/>
			<output>
				<port id="1" precision="FP16"/>
			</output>
		</layer>
		<layer id="160" name="18811885_const" type="Const" version="opset1">
			<data element_type="f16" offset="12178" shape="" size="2"/>
			<output>
				<port id="1" precision="FP16"/>
			</output>
		</layer>
		<layer id="161" name="18821886_const" type="Const" version="opset1">
			<data element_type="f16" offset="12180" shape="" size="2"/>
			<output>
				<port id="1" precision="FP16"/>
			</output>
		</layer>
		<layer id="162" name="MobilenetV2/expanded_conv_2/add/fq_input_0" type="FakeQuantize" version="opset1">
			<data levels="256"/>
			<input>
				<port id="0">
					<dim>1</dim>
					<dim>16</dim>
					<dim>75</dim>
					<dim>75</dim>
				</port>
				<port id="1"/>
				<port id="2"/>
				<port id="3"/>
				<port id="4"/>
			</input>
			<output>
				<port id="5" precision="FP16">
					<dim>1</dim>
					<dim>16</dim>
					<dim>75</dim>
					<dim>75</dim>
				</port>
			</output>
		</layer>
		<layer id="163" name="MobilenetV2/expanded_conv_2/add" type="Add" version="opset1">
			<input>
				<port id="0">
					<dim>1</dim>
					<dim>16</dim>
					<dim>75</dim>
					<dim>75</dim>
				</port>
				<port id="1">
					<dim>1</dim>
					<dim>16</dim>
					<dim>75</dim>
					<dim>75</dim>
				</port>
			</input>
			<output>
				<port id="2" precision="FP16">
					<dim>1</dim>
					<dim>16</dim>
					<dim>75</dim>
					<dim>75</dim>
				</port>
			</output>
		</layer>
		<layer id="164" name="19591963_const" type="Const" version="opset1">
			<data element_type="f16" offset="12182" shape="" size="2"/>
			<output>
				<port id="1" precision="FP16"/>
			</output>
		</layer>
		<layer id="165" name="19601964_const" type="Const" version="opset1">
			<data element_type="f16" offset="12184" shape="" size="2"/>
			<output>
				<port id="1" precision="FP16"/>
			</output>
		</layer>
		<layer id="166" name="19611965_const" type="Const" version="opset1">
			<data element_type="f16" offset="12182" shape="" size="2"/>
			<output>
				<port id="1" precision="FP16"/>
			</output>
		</layer>
		<layer id="167" name="19621966_const" type="Const" version="opset1">
			<data element_type="f16" offset="12184" shape="" size="2"/>
			<output>
				<port id="1" precision="FP16"/>
			</output>
		</layer>
		<layer id="168" name="MobilenetV2/expanded_conv_3/expand/Conv2D/fq_input_0" type="FakeQuantize" version="opset1">
			<data levels="256"/>
			<input>
				<port id="0">
					<dim>1</dim>
					<dim>16</dim>
					<dim>75</dim>
					<dim>75</dim>
				</port>
				<port id="1"/>
				<port id="2"/>
				<port id="3"/>
				<port id="4"/>
			</input>
			<output>
				<port id="5" precision="FP16">
					<dim>1</dim>
					<dim>16</dim>
					<dim>75</dim>
					<dim>75</dim>
				</port>
			</output>
		</layer>
		<layer id="169" name="MobilenetV2/expanded_conv_3/expand/Conv2D/fq_weights_1/Convert_to_float/Cast_06725_const" type="Const" version="opset1">
			<data element_type="u8" offset="12186" shape="96,16,1,1" size="1536"/>
			<output>
				<port id="1" precision="U8">
					<dim>96</dim>
					<dim>16</dim>
					<dim>1</dim>
					<dim>1</dim>
				</port>
			</output>
		</layer>
		<layer id="170" name="MobilenetV2/expanded_conv_3/expand/Conv2D/fq_weights_1/Convert_to_float" type="Convert" version="opset1">
			<data destination_type="f16"/>
			<input>
				<port id="0">
					<dim>96</dim>
					<dim>16</dim>
					<dim>1</dim>
					<dim>1</dim>
				</port>
			</input>
			<output>
				<port id="1" precision="FP16">
					<dim>96</dim>
					<dim>16</dim>
					<dim>1</dim>
					<dim>1</dim>
				</port>
			</output>
		</layer>
		<layer id="171" name="MobilenetV2/expanded_conv_3/expand/Conv2D/fq_weights_1/Copy/out_low5537_const" type="Const" version="opset1">
			<data element_type="f16" offset="448" shape="1" size="2"/>
			<output>
				<port id="1" precision="FP16">
					<dim>1</dim>
				</port>
			</output>
		</layer>
		<layer id="172" name="MobilenetV2/expanded_conv_3/expand/Conv2D/fq_weights_1/Copy/out_high5538_const" type="Const" version="opset1">
			<data element_type="f16" offset="450" shape="1" size="2"/>
			<output>
				<port id="1" precision="FP16">
					<dim>1</dim>
				</port>
			</output>
		</layer>
		<layer id="173" name="19711975_const" type="Const" version="opset1">
			<data element_type="f16" offset="13722" shape="96,1,1,1" size="192"/>
			<output>
				<port id="1" precision="FP16">
					<dim>96</dim>
					<dim>1</dim>
					<dim>1</dim>
					<dim>1</dim>
				</port>
			</output>
		</layer>
		<layer id="174" name="19721976_const" type="Const" version="opset1">
			<data element_type="f16" offset="13914" shape="96,1,1,1" size="192"/>
			<output>
				<port id="1" precision="FP16">
					<dim>96</dim>
					<dim>1</dim>
					<dim>1</dim>
					<dim>1</dim>
				</port>
			</output>
		</layer>
		<layer id="175" name="MobilenetV2/expanded_conv_3/expand/Conv2D/fq_weights_1" type="FakeQuantize" version="opset1">
			<data levels="255"/>
			<input>
				<port id="0">
					<dim>96</dim>
					<dim>16</dim>
					<dim>1</dim>
					<dim>1</dim>
				</port>
				<port id="1">
					<dim>1</dim>
				</port>
				<port id="2">
					<dim>1</dim>
				</port>
				<port id="3">
					<dim>96</dim>
					<dim>1</dim>
					<dim>1</dim>
					<dim>1</dim>
				</port>
				<port id="4">
					<dim>96</dim>
					<dim>1</dim>
					<dim>1</dim>
					<dim>1</dim>
				</port>
			</input>
			<output>
				<port id="5" precision="FP16">
					<dim>96</dim>
					<dim>16</dim>
					<dim>1</dim>
					<dim>1</dim>
				</port>
			</output>
		</layer>
		<layer id="176" name="MobilenetV2/expanded_conv_3/expand/Conv2D" type="Convolution" version="opset1">
			<data auto_pad="same_upper" dilations="1,1" output_padding="0,0" pads_begin="0,0" pads_end="0,0" strides="1,1"/>
			<input>
				<port id="0">
					<dim>1</dim>
					<dim>16</dim>
					<dim>75</dim>
					<dim>75</dim>
				</port>
				<port id="1">
					<dim>96</dim>
					<dim>16</dim>
					<dim>1</dim>
					<dim>1</dim>
				</port>
			</input>
			<output>
				<port id="2" precision="FP16">
					<dim>1</dim>
					<dim>96</dim>
					<dim>75</dim>
					<dim>75</dim>
				</port>
			</output>
		</layer>
		<layer id="177" name="data_add_1196211967/copy_const467_const" type="Const" version="opset1">
			<data element_type="f16" offset="14106" shape="1,96,1,1" size="192"/>
			<output>
				<port id="1" precision="FP16">
					<dim>1</dim>
					<dim>96</dim>
					<dim>1</dim>
					<dim>1</dim>
				</port>
			</output>
		</layer>
		<layer id="178" name="MobilenetV2/expanded_conv_3/expand/BatchNorm/FusedBatchNorm/variance/Fused_Add_" type="Add" version="opset1">
			<input>
				<port id="0">
					<dim>1</dim>
					<dim>96</dim>
					<dim>75</dim>
					<dim>75</dim>
				</port>
				<port id="1">
					<dim>1</dim>
					<dim>96</dim>
					<dim>1</dim>
					<dim>1</dim>
				</port>
			</input>
			<output>
				<port id="2" precision="FP16">
					<dim>1</dim>
					<dim>96</dim>
					<dim>75</dim>
					<dim>75</dim>
				</port>
			</output>
		</layer>
		<layer id="179" name="MobilenetV2/expanded_conv_3/expand/Relu6" type="Clamp" version="opset1">
			<data max="6" min="0"/>
			<input>
				<port id="0">
					<dim>1</dim>
					<dim>96</dim>
					<dim>75</dim>
					<dim>75</dim>
				</port>
			</input>
			<output>
				<port id="1" precision="FP16">
					<dim>1</dim>
					<dim>96</dim>
					<dim>75</dim>
					<dim>75</dim>
				</port>
			</output>
		</layer>
		<layer id="180" name="27592763_const" type="Const" version="opset1">
			<data element_type="f16" offset="3302" shape="1,96,1,1" size="192"/>
			<output>
				<port id="1" precision="FP16">
					<dim>1</dim>
					<dim>96</dim>
					<dim>1</dim>
					<dim>1</dim>
				</port>
			</output>
		</layer>
		<layer id="181" name="27602764_const" type="Const" version="opset1">
			<data element_type="f16" offset="14298" shape="1,96,1,1" size="192"/>
			<output>
				<port id="1" precision="FP16">
					<dim>1</dim>
					<dim>96</dim>
					<dim>1</dim>
					<dim>1</dim>
				</port>
			</output>
		</layer>
		<layer id="182" name="27612765_const" type="Const" version="opset1">
			<data element_type="f16" offset="3302" shape="1,96,1,1" size="192"/>
			<output>
				<port id="1" precision="FP16">
					<dim>1</dim>
					<dim>96</dim>
					<dim>1</dim>
					<dim>1</dim>
				</port>
			</output>
		</layer>
		<layer id="183" name="27622766_const" type="Const" version="opset1">
			<data element_type="f16" offset="14298" shape="1,96,1,1" size="192"/>
			<output>
				<port id="1" precision="FP16">
					<dim>1</dim>
					<dim>96</dim>
					<dim>1</dim>
					<dim>1</dim>
				</port>
			</output>
		</layer>
		<layer id="184" name="MobilenetV2/expanded_conv_3/depthwise/depthwise/fq_input_0" type="FakeQuantize" version="opset1">
			<data levels="256"/>
			<input>
				<port id="0">
					<dim>1</dim>
					<dim>96</dim>
					<dim>75</dim>
					<dim>75</dim>
				</port>
				<port id="1">
					<dim>1</dim>
					<dim>96</dim>
					<dim>1</dim>
					<dim>1</dim>
				</port>
				<port id="2">
					<dim>1</dim>
					<dim>96</dim>
					<dim>1</dim>
					<dim>1</dim>
				</port>
				<port id="3">
					<dim>1</dim>
					<dim>96</dim>
					<dim>1</dim>
					<dim>1</dim>
				</port>
				<port id="4">
					<dim>1</dim>
					<dim>96</dim>
					<dim>1</dim>
					<dim>1</dim>
				</port>
			</input>
			<output>
				<port id="5" precision="FP16">
					<dim>1</dim>
					<dim>96</dim>
					<dim>75</dim>
					<dim>75</dim>
				</port>
			</output>
		</layer>
		<layer id="185" name="MobilenetV2/expanded_conv_3/depthwise/depthwise/fq_weights_1/Convert_to_float/Cast_06879_const" type="Const" version="opset1">
			<data element_type="u8" offset="14490" shape="96,1,3,3" size="864"/>
			<output>
				<port id="1" precision="U8">
					<dim>96</dim>
					<dim>1</dim>
					<dim>3</dim>
					<dim>3</dim>
				</port>
			</output>
		</layer>
		<layer id="186" name="MobilenetV2/expanded_conv_3/depthwise/depthwise/fq_weights_1/Convert_to_float" type="Convert" version="opset1">
			<data destination_type="f16"/>
			<input>
				<port id="0">
					<dim>96</dim>
					<dim>1</dim>
					<dim>3</dim>
					<dim>3</dim>
				</port>
			</input>
			<output>
				<port id="1" precision="FP16">
					<dim>96</dim>
					<dim>1</dim>
					<dim>3</dim>
					<dim>3</dim>
				</port>
			</output>
		</layer>
		<layer id="187" name="MobilenetV2/expanded_conv_3/depthwise/depthwise/fq_weights_1/Copy/out_low5969_const" type="Const" version="opset1">
			<data element_type="f16" offset="448" shape="1" size="2"/>
			<output>
				<port id="1" precision="FP16">
					<dim>1</dim>
				</port>
			</output>
		</layer>
		<layer id="188" name="MobilenetV2/expanded_conv_3/depthwise/depthwise/fq_weights_1/Copy/out_high5970_const" type="Const" version="opset1">
			<data element_type="f16" offset="450" shape="1" size="2"/>
			<output>
				<port id="1" precision="FP16">
					<dim>1</dim>
				</port>
			</output>
		</layer>
		<layer id="189" name="27712775_const" type="Const" version="opset1">
			<data element_type="f16" offset="15354" shape="96,1,1,1" size="192"/>
			<output>
				<port id="1" precision="FP16">
					<dim>96</dim>
					<dim>1</dim>
					<dim>1</dim>
					<dim>1</dim>
				</port>
			</output>
		</layer>
		<layer id="190" name="27722776_const" type="Const" version="opset1">
			<data element_type="f16" offset="15546" shape="96,1,1,1" size="192"/>
			<output>
				<port id="1" precision="FP16">
					<dim>96</dim>
					<dim>1</dim>
					<dim>1</dim>
					<dim>1</dim>
				</port>
			</output>
		</layer>
		<layer id="191" name="MobilenetV2/expanded_conv_3/depthwise/depthwise/fq_weights_1" type="FakeQuantize" version="opset1">
			<data levels="255"/>
			<input>
				<port id="0">
					<dim>96</dim>
					<dim>1</dim>
					<dim>3</dim>
					<dim>3</dim>
				</port>
				<port id="1">
					<dim>1</dim>
				</port>
				<port id="2">
					<dim>1</dim>
				</port>
				<port id="3">
					<dim>96</dim>
					<dim>1</dim>
					<dim>1</dim>
					<dim>1</dim>
				</port>
				<port id="4">
					<dim>96</dim>
					<dim>1</dim>
					<dim>1</dim>
					<dim>1</dim>
				</port>
			</input>
			<output>
				<port id="5" precision="FP16">
					<dim>96</dim>
					<dim>1</dim>
					<dim>3</dim>
					<dim>3</dim>
				</port>
			</output>
		</layer>
		<layer id="192" name="7684/value7686_const" type="Const" version="opset1">
			<data element_type="i64" offset="4934" shape="5" size="40"/>
			<output>
				<port id="1" precision="I64">
					<dim>5</dim>
				</port>
			</output>
		</layer>
		<layer id="193" name="7684" type="Reshape" version="opset1">
			<data special_zero="True"/>
			<input>
				<port id="0">
					<dim>96</dim>
					<dim>1</dim>
					<dim>3</dim>
					<dim>3</dim>
				</port>
				<port id="1">
					<dim>5</dim>
				</port>
			</input>
			<output>
				<port id="2" precision="FP16">
					<dim>96</dim>
					<dim>1</dim>
					<dim>1</dim>
					<dim>3</dim>
					<dim>3</dim>
				</port>
			</output>
		</layer>
		<layer id="194" name="MobilenetV2/expanded_conv_3/depthwise/depthwise" type="GroupConvolution" version="opset1">
			<data auto_pad="same_upper" dilations="1,1" output_padding="0,0" pads_begin="0,0" pads_end="0,0" strides="2,2"/>
			<input>
				<port id="0">
					<dim>1</dim>
					<dim>96</dim>
					<dim>75</dim>
					<dim>75</dim>
				</port>
				<port id="1">
					<dim>96</dim>
					<dim>1</dim>
					<dim>1</dim>
					<dim>3</dim>
					<dim>3</dim>
				</port>
			</input>
			<output>
				<port id="2" precision="FP16">
					<dim>1</dim>
					<dim>96</dim>
					<dim>38</dim>
					<dim>38</dim>
				</port>
			</output>
		</layer>
		<layer id="195" name="data_add_1197011975/copy_const472_const" type="Const" version="opset1">
			<data element_type="f16" offset="15738" shape="1,96,1,1" size="192"/>
			<output>
				<port id="1" precision="FP16">
					<dim>1</dim>
					<dim>96</dim>
					<dim>1</dim>
					<dim>1</dim>
				</port>
			</output>
		</layer>
		<layer id="196" name="MobilenetV2/expanded_conv_3/depthwise/BatchNorm/FusedBatchNorm/variance/Fused_Add_" type="Add" version="opset1">
			<input>
				<port id="0">
					<dim>1</dim>
					<dim>96</dim>
					<dim>38</dim>
					<dim>38</dim>
				</port>
				<port id="1">
					<dim>1</dim>
					<dim>96</dim>
					<dim>1</dim>
					<dim>1</dim>
				</port>
			</input>
			<output>
				<port id="2" precision="FP16">
					<dim>1</dim>
					<dim>96</dim>
					<dim>38</dim>
					<dim>38</dim>
				</port>
			</output>
		</layer>
		<layer id="197" name="MobilenetV2/expanded_conv_3/depthwise/Relu6" type="Clamp" version="opset1">
			<data max="6" min="0"/>
			<input>
				<port id="0">
					<dim>1</dim>
					<dim>96</dim>
					<dim>38</dim>
					<dim>38</dim>
				</port>
			</input>
			<output>
				<port id="1" precision="FP16">
					<dim>1</dim>
					<dim>96</dim>
					<dim>38</dim>
					<dim>38</dim>
				</port>
			</output>
		</layer>
		<layer id="198" name="25192523_const" type="Const" version="opset1">
			<data element_type="f16" offset="448" shape="" size="2"/>
			<output>
				<port id="1" precision="FP16"/>
			</output>
		</layer>
		<layer id="199" name="25202524_const" type="Const" version="opset1">
			<data element_type="f16" offset="548" shape="" size="2"/>
			<output>
				<port id="1" precision="FP16"/>
			</output>
		</layer>
		<layer id="200" name="25212525_const" type="Const" version="opset1">
			<data element_type="f16" offset="448" shape="" size="2"/>
			<output>
				<port id="1" precision="FP16"/>
			</output>
		</layer>
		<layer id="201" name="25222526_const" type="Const" version="opset1">
			<data element_type="f16" offset="548" shape="" size="2"/>
			<output>
				<port id="1" precision="FP16"/>
			</output>
		</layer>
		<layer id="202" name="MobilenetV2/expanded_conv_3/project/Conv2D/fq_input_0" type="FakeQuantize" version="opset1">
			<data levels="256"/>
			<input>
				<port id="0">
					<dim>1</dim>
					<dim>96</dim>
					<dim>38</dim>
					<dim>38</dim>
				</port>
				<port id="1"/>
				<port id="2"/>
				<port id="3"/>
				<port id="4"/>
			</input>
			<output>
				<port id="5" precision="FP16">
					<dim>1</dim>
					<dim>96</dim>
					<dim>38</dim>
					<dim>38</dim>
				</port>
			</output>
		</layer>
		<layer id="203" name="MobilenetV2/expanded_conv_3/project/Conv2D/fq_weights_1/Convert_to_float/Cast_06719_const" type="Const" version="opset1">
			<data element_type="u8" offset="15930" shape="16,96,1,1" size="1536"/>
			<output>
				<port id="1" precision="U8">
					<dim>16</dim>
					<dim>96</dim>
					<dim>1</dim>
					<dim>1</dim>
				</port>
			</output>
		</layer>
		<layer id="204" name="MobilenetV2/expanded_conv_3/project/Conv2D/fq_weights_1/Convert_to_float" type="Convert" version="opset1">
			<data destination_type="f16"/>
			<input>
				<port id="0">
					<dim>16</dim>
					<dim>96</dim>
					<dim>1</dim>
					<dim>1</dim>
				</port>
			</input>
			<output>
				<port id="1" precision="FP16">
					<dim>16</dim>
					<dim>96</dim>
					<dim>1</dim>
					<dim>1</dim>
				</port>
			</output>
		</layer>
		<layer id="205" name="MobilenetV2/expanded_conv_3/project/Conv2D/fq_weights_1/Copy/out_low5833_const" type="Const" version="opset1">
			<data element_type="f16" offset="448" shape="1" size="2"/>
			<output>
				<port id="1" precision="FP16">
					<dim>1</dim>
				</port>
			</output>
		</layer>
		<layer id="206" name="MobilenetV2/expanded_conv_3/project/Conv2D/fq_weights_1/Copy/out_high5834_const" type="Const" version="opset1">
			<data element_type="f16" offset="450" shape="1" size="2"/>
			<output>
				<port id="1" precision="FP16">
					<dim>1</dim>
				</port>
			</output>
		</layer>
		<layer id="207" name="25312535_const" type="Const" version="opset1">
			<data element_type="f16" offset="17466" shape="16,1,1,1" size="32"/>
			<output>
				<port id="1" precision="FP16">
					<dim>16</dim>
					<dim>1</dim>
					<dim>1</dim>
					<dim>1</dim>
				</port>
			</output>
		</layer>
		<layer id="208" name="25322536_const" type="Const" version="opset1">
			<data element_type="f16" offset="17498" shape="16,1,1,1" size="32"/>
			<output>
				<port id="1" precision="FP16">
					<dim>16</dim>
					<dim>1</dim>
					<dim>1</dim>
					<dim>1</dim>
				</port>
			</output>
		</layer>
		<layer id="209" name="MobilenetV2/expanded_conv_3/project/Conv2D/fq_weights_1" type="FakeQuantize" version="opset1">
			<data levels="255"/>
			<input>
				<port id="0">
					<dim>16</dim>
					<dim>96</dim>
					<dim>1</dim>
					<dim>1</dim>
				</port>
				<port id="1">
					<dim>1</dim>
				</port>
				<port id="2">
					<dim>1</dim>
				</port>
				<port id="3">
					<dim>16</dim>
					<dim>1</dim>
					<dim>1</dim>
					<dim>1</dim>
				</port>
				<port id="4">
					<dim>16</dim>
					<dim>1</dim>
					<dim>1</dim>
					<dim>1</dim>
				</port>
			</input>
			<output>
				<port id="5" precision="FP16">
					<dim>16</dim>
					<dim>96</dim>
					<dim>1</dim>
					<dim>1</dim>
				</port>
			</output>
		</layer>
		<layer id="210" name="MobilenetV2/expanded_conv_3/project/Conv2D" type="Convolution" version="opset1">
			<data auto_pad="same_upper" dilations="1,1" output_padding="0,0" pads_begin="0,0" pads_end="0,0" strides="1,1"/>
			<input>
				<port id="0">
					<dim>1</dim>
					<dim>96</dim>
					<dim>38</dim>
					<dim>38</dim>
				</port>
				<port id="1">
					<dim>16</dim>
					<dim>96</dim>
					<dim>1</dim>
					<dim>1</dim>
				</port>
			</input>
			<output>
				<port id="2" precision="FP16">
					<dim>1</dim>
					<dim>16</dim>
					<dim>38</dim>
					<dim>38</dim>
				</port>
			</output>
		</layer>
		<layer id="211" name="data_add_1197811983/copy_const477_const" type="Const" version="opset1">
			<data element_type="f16" offset="17530" shape="1,16,1,1" size="32"/>
			<output>
				<port id="1" precision="FP16">
					<dim>1</dim>
					<dim>16</dim>
					<dim>1</dim>
					<dim>1</dim>
				</port>
			</output>
		</layer>
		<layer id="212" name="MobilenetV2/expanded_conv_3/project/BatchNorm/FusedBatchNorm/variance/Fused_Add_" type="Add" version="opset1">
			<input>
				<port id="0">
					<dim>1</dim>
					<dim>16</dim>
					<dim>38</dim>
					<dim>38</dim>
				</port>
				<port id="1">
					<dim>1</dim>
					<dim>16</dim>
					<dim>1</dim>
					<dim>1</dim>
				</port>
			</input>
			<output>
				<port id="2" precision="FP16">
					<dim>1</dim>
					<dim>16</dim>
					<dim>38</dim>
					<dim>38</dim>
				</port>
			</output>
		</layer>
		<layer id="213" name="25892593_const" type="Const" version="opset1">
			<data element_type="f16" offset="17562" shape="" size="2"/>
			<output>
				<port id="1" precision="FP16"/>
			</output>
		</layer>
		<layer id="214" name="25902594_const" type="Const" version="opset1">
			<data element_type="f16" offset="17564" shape="" size="2"/>
			<output>
				<port id="1" precision="FP16"/>
			</output>
		</layer>
		<layer id="215" name="25912595_const" type="Const" version="opset1">
			<data element_type="f16" offset="17562" shape="" size="2"/>
			<output>
				<port id="1" precision="FP16"/>
			</output>
		</layer>
		<layer id="216" name="25922596_const" type="Const" version="opset1">
			<data element_type="f16" offset="17564" shape="" size="2"/>
			<output>
				<port id="1" precision="FP16"/>
			</output>
		</layer>
		<layer id="217" name="MobilenetV2/expanded_conv_4/add/fq_input_1" type="FakeQuantize" version="opset1">
			<data levels="256"/>
			<input>
				<port id="0">
					<dim>1</dim>
					<dim>16</dim>
					<dim>38</dim>
					<dim>38</dim>
				</port>
				<port id="1"/>
				<port id="2"/>
				<port id="3"/>
				<port id="4"/>
			</input>
			<output>
				<port id="5" precision="FP16">
					<dim>1</dim>
					<dim>16</dim>
					<dim>38</dim>
					<dim>38</dim>
				</port>
			</output>
		</layer>
		<layer id="218" name="MobilenetV2/expanded_conv_4/expand/Conv2D/fq_weights_1/Convert_to_float/Cast_06777_const" type="Const" version="opset1">
			<data element_type="u8" offset="17566" shape="96,16,1,1" size="1536"/>
			<output>
				<port id="1" precision="U8">
					<dim>96</dim>
					<dim>16</dim>
					<dim>1</dim>
					<dim>1</dim>
				</port>
			</output>
		</layer>
		<layer id="219" name="MobilenetV2/expanded_conv_4/expand/Conv2D/fq_weights_1/Convert_to_float" type="Convert" version="opset1">
			<data destination_type="f16"/>
			<input>
				<port id="0">
					<dim>96</dim>
					<dim>16</dim>
					<dim>1</dim>
					<dim>1</dim>
				</port>
			</input>
			<output>
				<port id="1" precision="FP16">
					<dim>96</dim>
					<dim>16</dim>
					<dim>1</dim>
					<dim>1</dim>
				</port>
			</output>
		</layer>
		<layer id="220" name="MobilenetV2/expanded_conv_4/expand/Conv2D/fq_weights_1/Copy/out_low5777_const" type="Const" version="opset1">
			<data element_type="f16" offset="448" shape="1" size="2"/>
			<output>
				<port id="1" precision="FP16">
					<dim>1</dim>
				</port>
			</output>
		</layer>
		<layer id="221" name="MobilenetV2/expanded_conv_4/expand/Conv2D/fq_weights_1/Copy/out_high5778_const" type="Const" version="opset1">
			<data element_type="f16" offset="450" shape="1" size="2"/>
			<output>
				<port id="1" precision="FP16">
					<dim>1</dim>
				</port>
			</output>
		</layer>
		<layer id="222" name="20712075_const" type="Const" version="opset1">
			<data element_type="f16" offset="19102" shape="96,1,1,1" size="192"/>
			<output>
				<port id="1" precision="FP16">
					<dim>96</dim>
					<dim>1</dim>
					<dim>1</dim>
					<dim>1</dim>
				</port>
			</output>
		</layer>
		<layer id="223" name="20722076_const" type="Const" version="opset1">
			<data element_type="f16" offset="19294" shape="96,1,1,1" size="192"/>
			<output>
				<port id="1" precision="FP16">
					<dim>96</dim>
					<dim>1</dim>
					<dim>1</dim>
					<dim>1</dim>
				</port>
			</output>
		</layer>
		<layer id="224" name="MobilenetV2/expanded_conv_4/expand/Conv2D/fq_weights_1" type="FakeQuantize" version="opset1">
			<data levels="255"/>
			<input>
				<port id="0">
					<dim>96</dim>
					<dim>16</dim>
					<dim>1</dim>
					<dim>1</dim>
				</port>
				<port id="1">
					<dim>1</dim>
				</port>
				<port id="2">
					<dim>1</dim>
				</port>
				<port id="3">
					<dim>96</dim>
					<dim>1</dim>
					<dim>1</dim>
					<dim>1</dim>
				</port>
				<port id="4">
					<dim>96</dim>
					<dim>1</dim>
					<dim>1</dim>
					<dim>1</dim>
				</port>
			</input>
			<output>
				<port id="5" precision="FP16">
					<dim>96</dim>
					<dim>16</dim>
					<dim>1</dim>
					<dim>1</dim>
				</port>
			</output>
		</layer>
		<layer id="225" name="MobilenetV2/expanded_conv_4/expand/Conv2D" type="Convolution" version="opset1">
			<data auto_pad="same_upper" dilations="1,1" output_padding="0,0" pads_begin="0,0" pads_end="0,0" strides="1,1"/>
			<input>
				<port id="0">
					<dim>1</dim>
					<dim>16</dim>
					<dim>38</dim>
					<dim>38</dim>
				</port>
				<port id="1">
					<dim>96</dim>
					<dim>16</dim>
					<dim>1</dim>
					<dim>1</dim>
				</port>
			</input>
			<output>
				<port id="2" precision="FP16">
					<dim>1</dim>
					<dim>96</dim>
					<dim>38</dim>
					<dim>38</dim>
				</port>
			</output>
		</layer>
		<layer id="226" name="data_add_1198611991/copy_const481_const" type="Const" version="opset1">
			<data element_type="f16" offset="19486" shape="1,96,1,1" size="192"/>
			<output>
				<port id="1" precision="FP16">
					<dim>1</dim>
					<dim>96</dim>
					<dim>1</dim>
					<dim>1</dim>
				</port>
			</output>
		</layer>
		<layer id="227" name="MobilenetV2/expanded_conv_4/expand/BatchNorm/FusedBatchNorm/variance/Fused_Add_" type="Add" version="opset1">
			<input>
				<port id="0">
					<dim>1</dim>
					<dim>96</dim>
					<dim>38</dim>
					<dim>38</dim>
				</port>
				<port id="1">
					<dim>1</dim>
					<dim>96</dim>
					<dim>1</dim>
					<dim>1</dim>
				</port>
			</input>
			<output>
				<port id="2" precision="FP16">
					<dim>1</dim>
					<dim>96</dim>
					<dim>38</dim>
					<dim>38</dim>
				</port>
			</output>
		</layer>
		<layer id="228" name="MobilenetV2/expanded_conv_4/expand/Relu6" type="Clamp" version="opset1">
			<data max="6" min="0"/>
			<input>
				<port id="0">
					<dim>1</dim>
					<dim>96</dim>
					<dim>38</dim>
					<dim>38</dim>
				</port>
			</input>
			<output>
				<port id="1" precision="FP16">
					<dim>1</dim>
					<dim>96</dim>
					<dim>38</dim>
					<dim>38</dim>
				</port>
			</output>
		</layer>
		<layer id="229" name="22992303_const" type="Const" version="opset1">
			<data element_type="f16" offset="3302" shape="1,96,1,1" size="192"/>
			<output>
				<port id="1" precision="FP16">
					<dim>1</dim>
					<dim>96</dim>
					<dim>1</dim>
					<dim>1</dim>
				</port>
			</output>
		</layer>
		<layer id="230" name="23002304_const" type="Const" version="opset1">
			<data element_type="f16" offset="19678" shape="1,96,1,1" size="192"/>
			<output>
				<port id="1" precision="FP16">
					<dim>1</dim>
					<dim>96</dim>
					<dim>1</dim>
					<dim>1</dim>
				</port>
			</output>
		</layer>
		<layer id="231" name="23012305_const" type="Const" version="opset1">
			<data element_type="f16" offset="3302" shape="1,96,1,1" size="192"/>
			<output>
				<port id="1" precision="FP16">
					<dim>1</dim>
					<dim>96</dim>
					<dim>1</dim>
					<dim>1</dim>
				</port>
			</output>
		</layer>
		<layer id="232" name="23022306_const" type="Const" version="opset1">
			<data element_type="f16" offset="19678" shape="1,96,1,1" size="192"/>
			<output>
				<port id="1" precision="FP16">
					<dim>1</dim>
					<dim>96</dim>
					<dim>1</dim>
					<dim>1</dim>
				</port>
			</output>
		</layer>
		<layer id="233" name="MobilenetV2/expanded_conv_4/depthwise/depthwise/fq_input_0" type="FakeQuantize" version="opset1">
			<data levels="256"/>
			<input>
				<port id="0">
					<dim>1</dim>
					<dim>96</dim>
					<dim>38</dim>
					<dim>38</dim>
				</port>
				<port id="1">
					<dim>1</dim>
					<dim>96</dim>
					<dim>1</dim>
					<dim>1</dim>
				</port>
				<port id="2">
					<dim>1</dim>
					<dim>96</dim>
					<dim>1</dim>
					<dim>1</dim>
				</port>
				<port id="3">
					<dim>1</dim>
					<dim>96</dim>
					<dim>1</dim>
					<dim>1</dim>
				</port>
				<port id="4">
					<dim>1</dim>
					<dim>96</dim>
					<dim>1</dim>
					<dim>1</dim>
				</port>
			</input>
			<output>
				<port id="5" precision="FP16">
					<dim>1</dim>
					<dim>96</dim>
					<dim>38</dim>
					<dim>38</dim>
				</port>
			</output>
		</layer>
		<layer id="234" name="MobilenetV2/expanded_conv_4/depthwise/depthwise/fq_weights_1/Convert_to_float/Cast_06817_const" type="Const" version="opset1">
			<data element_type="u8" offset="19870" shape="96,1,3,3" size="864"/>
			<output>
				<port id="1" precision="U8">
					<dim>96</dim>
					<dim>1</dim>
					<dim>3</dim>
					<dim>3</dim>
				</port>
			</output>
		</layer>
		<layer id="235" name="MobilenetV2/expanded_conv_4/depthwise/depthwise/fq_weights_1/Convert_to_float" type="Convert" version="opset1">
			<data destination_type="f16"/>
			<input>
				<port id="0">
					<dim>96</dim>
					<dim>1</dim>
					<dim>3</dim>
					<dim>3</dim>
				</port>
			</input>
			<output>
				<port id="1" precision="FP16">
					<dim>96</dim>
					<dim>1</dim>
					<dim>3</dim>
					<dim>3</dim>
				</port>
			</output>
		</layer>
		<layer id="236" name="MobilenetV2/expanded_conv_4/depthwise/depthwise/fq_weights_1/Copy/out_low5697_const" type="Const" version="opset1">
			<data element_type="f16" offset="448" shape="1" size="2"/>
			<output>
				<port id="1" precision="FP16">
					<dim>1</dim>
				</port>
			</output>
		</layer>
		<layer id="237" name="MobilenetV2/expanded_conv_4/depthwise/depthwise/fq_weights_1/Copy/out_high5698_const" type="Const" version="opset1">
			<data element_type="f16" offset="450" shape="1" size="2"/>
			<output>
				<port id="1" precision="FP16">
					<dim>1</dim>
				</port>
			</output>
		</layer>
		<layer id="238" name="23112315_const" type="Const" version="opset1">
			<data element_type="f16" offset="20734" shape="96,1,1,1" size="192"/>
			<output>
				<port id="1" precision="FP16">
					<dim>96</dim>
					<dim>1</dim>
					<dim>1</dim>
					<dim>1</dim>
				</port>
			</output>
		</layer>
		<layer id="239" name="23122316_const" type="Const" version="opset1">
			<data element_type="f16" offset="20926" shape="96,1,1,1" size="192"/>
			<output>
				<port id="1" precision="FP16">
					<dim>96</dim>
					<dim>1</dim>
					<dim>1</dim>
					<dim>1</dim>
				</port>
			</output>
		</layer>
		<layer id="240" name="MobilenetV2/expanded_conv_4/depthwise/depthwise/fq_weights_1" type="FakeQuantize" version="opset1">
			<data levels="255"/>
			<input>
				<port id="0">
					<dim>96</dim>
					<dim>1</dim>
					<dim>3</dim>
					<dim>3</dim>
				</port>
				<port id="1">
					<dim>1</dim>
				</port>
				<port id="2">
					<dim>1</dim>
				</port>
				<port id="3">
					<dim>96</dim>
					<dim>1</dim>
					<dim>1</dim>
					<dim>1</dim>
				</port>
				<port id="4">
					<dim>96</dim>
					<dim>1</dim>
					<dim>1</dim>
					<dim>1</dim>
				</port>
			</input>
			<output>
				<port id="5" precision="FP16">
					<dim>96</dim>
					<dim>1</dim>
					<dim>3</dim>
					<dim>3</dim>
				</port>
			</output>
		</layer>
		<layer id="241" name="7644/value7646_const" type="Const" version="opset1">
			<data element_type="i64" offset="4934" shape="5" size="40"/>
			<output>
				<port id="1" precision="I64">
					<dim>5</dim>
				</port>
			</output>
		</layer>
		<layer id="242" name="7644" type="Reshape" version="opset1">
			<data special_zero="True"/>
			<input>
				<port id="0">
					<dim>96</dim>
					<dim>1</dim>
					<dim>3</dim>
					<dim>3</dim>
				</port>
				<port id="1">
					<dim>5</dim>
				</port>
			</input>
			<output>
				<port id="2" precision="FP16">
					<dim>96</dim>
					<dim>1</dim>
					<dim>1</dim>
					<dim>3</dim>
					<dim>3</dim>
				</port>
			</output>
		</layer>
		<layer id="243" name="MobilenetV2/expanded_conv_4/depthwise/depthwise" type="GroupConvolution" version="opset1">
			<data auto_pad="same_upper" dilations="1,1" output_padding="0,0" pads_begin="0,0" pads_end="0,0" strides="1,1"/>
			<input>
				<port id="0">
					<dim>1</dim>
					<dim>96</dim>
					<dim>38</dim>
					<dim>38</dim>
				</port>
				<port id="1">
					<dim>96</dim>
					<dim>1</dim>
					<dim>1</dim>
					<dim>3</dim>
					<dim>3</dim>
				</port>
			</input>
			<output>
				<port id="2" precision="FP16">
					<dim>1</dim>
					<dim>96</dim>
					<dim>38</dim>
					<dim>38</dim>
				</port>
			</output>
		</layer>
		<layer id="244" name="data_add_1199411999/copy_const486_const" type="Const" version="opset1">
			<data element_type="f16" offset="21118" shape="1,96,1,1" size="192"/>
			<output>
				<port id="1" precision="FP16">
					<dim>1</dim>
					<dim>96</dim>
					<dim>1</dim>
					<dim>1</dim>
				</port>
			</output>
		</layer>
		<layer id="245" name="MobilenetV2/expanded_conv_4/depthwise/BatchNorm/FusedBatchNorm/variance/Fused_Add_" type="Add" version="opset1">
			<input>
				<port id="0">
					<dim>1</dim>
					<dim>96</dim>
					<dim>38</dim>
					<dim>38</dim>
				</port>
				<port id="1">
					<dim>1</dim>
					<dim>96</dim>
					<dim>1</dim>
					<dim>1</dim>
				</port>
			</input>
			<output>
				<port id="2" precision="FP16">
					<dim>1</dim>
					<dim>96</dim>
					<dim>38</dim>
					<dim>38</dim>
				</port>
			</output>
		</layer>
		<layer id="246" name="MobilenetV2/expanded_conv_4/depthwise/Relu6" type="Clamp" version="opset1">
			<data max="6" min="0"/>
			<input>
				<port id="0">
					<dim>1</dim>
					<dim>96</dim>
					<dim>38</dim>
					<dim>38</dim>
				</port>
			</input>
			<output>
				<port id="1" precision="FP16">
					<dim>1</dim>
					<dim>96</dim>
					<dim>38</dim>
					<dim>38</dim>
				</port>
			</output>
		</layer>
		<layer id="247" name="19391943_const" type="Const" version="opset1">
			<data element_type="f16" offset="448" shape="" size="2"/>
			<output>
				<port id="1" precision="FP16"/>
			</output>
		</layer>
		<layer id="248" name="19401944_const" type="Const" version="opset1">
			<data element_type="f16" offset="548" shape="" size="2"/>
			<output>
				<port id="1" precision="FP16"/>
			</output>
		</layer>
		<layer id="249" name="19411945_const" type="Const" version="opset1">
			<data element_type="f16" offset="448" shape="" size="2"/>
			<output>
				<port id="1" precision="FP16"/>
			</output>
		</layer>
		<layer id="250" name="19421946_const" type="Const" version="opset1">
			<data element_type="f16" offset="548" shape="" size="2"/>
			<output>
				<port id="1" precision="FP16"/>
			</output>
		</layer>
		<layer id="251" name="MobilenetV2/expanded_conv_4/project/Conv2D/fq_input_0" type="FakeQuantize" version="opset1">
			<data levels="256"/>
			<input>
				<port id="0">
					<dim>1</dim>
					<dim>96</dim>
					<dim>38</dim>
					<dim>38</dim>
				</port>
				<port id="1"/>
				<port id="2"/>
				<port id="3"/>
				<port id="4"/>
			</input>
			<output>
				<port id="5" precision="FP16">
					<dim>1</dim>
					<dim>96</dim>
					<dim>38</dim>
					<dim>38</dim>
				</port>
			</output>
		</layer>
		<layer id="252" name="MobilenetV2/expanded_conv_4/project/Conv2D/fq_weights_1/Convert_to_float/Cast_06739_const" type="Const" version="opset1">
			<data element_type="u8" offset="21310" shape="16,96,1,1" size="1536"/>
			<output>
				<port id="1" precision="U8">
					<dim>16</dim>
					<dim>96</dim>
					<dim>1</dim>
					<dim>1</dim>
				</port>
			</output>
		</layer>
		<layer id="253" name="MobilenetV2/expanded_conv_4/project/Conv2D/fq_weights_1/Convert_to_float" type="Convert" version="opset1">
			<data destination_type="f16"/>
			<input>
				<port id="0">
					<dim>16</dim>
					<dim>96</dim>
					<dim>1</dim>
					<dim>1</dim>
				</port>
			</input>
			<output>
				<port id="1" precision="FP16">
					<dim>16</dim>
					<dim>96</dim>
					<dim>1</dim>
					<dim>1</dim>
				</port>
			</output>
		</layer>
		<layer id="254" name="MobilenetV2/expanded_conv_4/project/Conv2D/fq_weights_1/Copy/out_low5913_const" type="Const" version="opset1">
			<data element_type="f16" offset="448" shape="1" size="2"/>
			<output>
				<port id="1" precision="FP16">
					<dim>1</dim>
				</port>
			</output>
		</layer>
		<layer id="255" name="MobilenetV2/expanded_conv_4/project/Conv2D/fq_weights_1/Copy/out_high5914_const" type="Const" version="opset1">
			<data element_type="f16" offset="450" shape="1" size="2"/>
			<output>
				<port id="1" precision="FP16">
					<dim>1</dim>
				</port>
			</output>
		</layer>
		<layer id="256" name="19511955_const" type="Const" version="opset1">
			<data element_type="f16" offset="22846" shape="16,1,1,1" size="32"/>
			<output>
				<port id="1" precision="FP16">
					<dim>16</dim>
					<dim>1</dim>
					<dim>1</dim>
					<dim>1</dim>
				</port>
			</output>
		</layer>
		<layer id="257" name="19521956_const" type="Const" version="opset1">
			<data element_type="f16" offset="22878" shape="16,1,1,1" size="32"/>
			<output>
				<port id="1" precision="FP16">
					<dim>16</dim>
					<dim>1</dim>
					<dim>1</dim>
					<dim>1</dim>
				</port>
			</output>
		</layer>
		<layer id="258" name="MobilenetV2/expanded_conv_4/project/Conv2D/fq_weights_1" type="FakeQuantize" version="opset1">
			<data levels="255"/>
			<input>
				<port id="0">
					<dim>16</dim>
					<dim>96</dim>
					<dim>1</dim>
					<dim>1</dim>
				</port>
				<port id="1">
					<dim>1</dim>
				</port>
				<port id="2">
					<dim>1</dim>
				</port>
				<port id="3">
					<dim>16</dim>
					<dim>1</dim>
					<dim>1</dim>
					<dim>1</dim>
				</port>
				<port id="4">
					<dim>16</dim>
					<dim>1</dim>
					<dim>1</dim>
					<dim>1</dim>
				</port>
			</input>
			<output>
				<port id="5" precision="FP16">
					<dim>16</dim>
					<dim>96</dim>
					<dim>1</dim>
					<dim>1</dim>
				</port>
			</output>
		</layer>
		<layer id="259" name="MobilenetV2/expanded_conv_4/project/Conv2D" type="Convolution" version="opset1">
			<data auto_pad="same_upper" dilations="1,1" output_padding="0,0" pads_begin="0,0" pads_end="0,0" strides="1,1"/>
			<input>
				<port id="0">
					<dim>1</dim>
					<dim>96</dim>
					<dim>38</dim>
					<dim>38</dim>
				</port>
				<port id="1">
					<dim>16</dim>
					<dim>96</dim>
					<dim>1</dim>
					<dim>1</dim>
				</port>
			</input>
			<output>
				<port id="2" precision="FP16">
					<dim>1</dim>
					<dim>16</dim>
					<dim>38</dim>
					<dim>38</dim>
				</port>
			</output>
		</layer>
		<layer id="260" name="data_add_1200212007/copy_const491_const" type="Const" version="opset1">
			<data element_type="f16" offset="22910" shape="1,16,1,1" size="32"/>
			<output>
				<port id="1" precision="FP16">
					<dim>1</dim>
					<dim>16</dim>
					<dim>1</dim>
					<dim>1</dim>
				</port>
			</output>
		</layer>
		<layer id="261" name="MobilenetV2/expanded_conv_4/project/BatchNorm/FusedBatchNorm/variance/Fused_Add_" type="Add" version="opset1">
			<input>
				<port id="0">
					<dim>1</dim>
					<dim>16</dim>
					<dim>38</dim>
					<dim>38</dim>
				</port>
				<port id="1">
					<dim>1</dim>
					<dim>16</dim>
					<dim>1</dim>
					<dim>1</dim>
				</port>
			</input>
			<output>
				<port id="2" precision="FP16">
					<dim>1</dim>
					<dim>16</dim>
					<dim>38</dim>
					<dim>38</dim>
				</port>
			</output>
		</layer>
		<layer id="262" name="25792583_const" type="Const" version="opset1">
			<data element_type="f16" offset="22942" shape="" size="2"/>
			<output>
				<port id="1" precision="FP16"/>
			</output>
		</layer>
		<layer id="263" name="25802584_const" type="Const" version="opset1">
			<data element_type="f16" offset="22944" shape="" size="2"/>
			<output>
				<port id="1" precision="FP16"/>
			</output>
		</layer>
		<layer id="264" name="25812585_const" type="Const" version="opset1">
			<data element_type="f16" offset="22942" shape="" size="2"/>
			<output>
				<port id="1" precision="FP16"/>
			</output>
		</layer>
		<layer id="265" name="25822586_const" type="Const" version="opset1">
			<data element_type="f16" offset="22944" shape="" size="2"/>
			<output>
				<port id="1" precision="FP16"/>
			</output>
		</layer>
		<layer id="266" name="MobilenetV2/expanded_conv_4/add/fq_input_0" type="FakeQuantize" version="opset1">
			<data levels="256"/>
			<input>
				<port id="0">
					<dim>1</dim>
					<dim>16</dim>
					<dim>38</dim>
					<dim>38</dim>
				</port>
				<port id="1"/>
				<port id="2"/>
				<port id="3"/>
				<port id="4"/>
			</input>
			<output>
				<port id="5" precision="FP16">
					<dim>1</dim>
					<dim>16</dim>
					<dim>38</dim>
					<dim>38</dim>
				</port>
			</output>
		</layer>
		<layer id="267" name="MobilenetV2/expanded_conv_4/add" type="Add" version="opset1">
			<input>
				<port id="0">
					<dim>1</dim>
					<dim>16</dim>
					<dim>38</dim>
					<dim>38</dim>
				</port>
				<port id="1">
					<dim>1</dim>
					<dim>16</dim>
					<dim>38</dim>
					<dim>38</dim>
				</port>
			</input>
			<output>
				<port id="2" precision="FP16">
					<dim>1</dim>
					<dim>16</dim>
					<dim>38</dim>
					<dim>38</dim>
				</port>
			</output>
		</layer>
		<layer id="268" name="16491653_const" type="Const" version="opset1">
			<data element_type="f16" offset="22946" shape="" size="2"/>
			<output>
				<port id="1" precision="FP16"/>
			</output>
		</layer>
		<layer id="269" name="16501654_const" type="Const" version="opset1">
			<data element_type="f16" offset="22948" shape="" size="2"/>
			<output>
				<port id="1" precision="FP16"/>
			</output>
		</layer>
		<layer id="270" name="16511655_const" type="Const" version="opset1">
			<data element_type="f16" offset="22946" shape="" size="2"/>
			<output>
				<port id="1" precision="FP16"/>
			</output>
		</layer>
		<layer id="271" name="16521656_const" type="Const" version="opset1">
			<data element_type="f16" offset="22948" shape="" size="2"/>
			<output>
				<port id="1" precision="FP16"/>
			</output>
		</layer>
		<layer id="272" name="MobilenetV2/expanded_conv_5/add/fq_input_1" type="FakeQuantize" version="opset1">
			<data levels="256"/>
			<input>
				<port id="0">
					<dim>1</dim>
					<dim>16</dim>
					<dim>38</dim>
					<dim>38</dim>
				</port>
				<port id="1"/>
				<port id="2"/>
				<port id="3"/>
				<port id="4"/>
			</input>
			<output>
				<port id="5" precision="FP16">
					<dim>1</dim>
					<dim>16</dim>
					<dim>38</dim>
					<dim>38</dim>
				</port>
			</output>
		</layer>
		<layer id="273" name="MobilenetV2/expanded_conv_5/expand/Conv2D/fq_weights_1/Convert_to_float/Cast_06843_const" type="Const" version="opset1">
			<data element_type="u8" offset="22950" shape="96,16,1,1" size="1536"/>
			<output>
				<port id="1" precision="U8">
					<dim>96</dim>
					<dim>16</dim>
					<dim>1</dim>
					<dim>1</dim>
				</port>
			</output>
		</layer>
		<layer id="274" name="MobilenetV2/expanded_conv_5/expand/Conv2D/fq_weights_1/Convert_to_float" type="Convert" version="opset1">
			<data destination_type="f16"/>
			<input>
				<port id="0">
					<dim>96</dim>
					<dim>16</dim>
					<dim>1</dim>
					<dim>1</dim>
				</port>
			</input>
			<output>
				<port id="1" precision="FP16">
					<dim>96</dim>
					<dim>16</dim>
					<dim>1</dim>
					<dim>1</dim>
				</port>
			</output>
		</layer>
		<layer id="275" name="MobilenetV2/expanded_conv_5/expand/Conv2D/fq_weights_1/Copy/out_low5633_const" type="Const" version="opset1">
			<data element_type="f16" offset="448" shape="1" size="2"/>
			<output>
				<port id="1" precision="FP16">
					<dim>1</dim>
				</port>
			</output>
		</layer>
		<layer id="276" name="MobilenetV2/expanded_conv_5/expand/Conv2D/fq_weights_1/Copy/out_high5634_const" type="Const" version="opset1">
			<data element_type="f16" offset="450" shape="1" size="2"/>
			<output>
				<port id="1" precision="FP16">
					<dim>1</dim>
				</port>
			</output>
		</layer>
		<layer id="277" name="15311535_const" type="Const" version="opset1">
			<data element_type="f16" offset="24486" shape="96,1,1,1" size="192"/>
			<output>
				<port id="1" precision="FP16">
					<dim>96</dim>
					<dim>1</dim>
					<dim>1</dim>
					<dim>1</dim>
				</port>
			</output>
		</layer>
		<layer id="278" name="15321536_const" type="Const" version="opset1">
			<data element_type="f16" offset="24678" shape="96,1,1,1" size="192"/>
			<output>
				<port id="1" precision="FP16">
					<dim>96</dim>
					<dim>1</dim>
					<dim>1</dim>
					<dim>1</dim>
				</port>
			</output>
		</layer>
		<layer id="279" name="MobilenetV2/expanded_conv_5/expand/Conv2D/fq_weights_1" type="FakeQuantize" version="opset1">
			<data levels="255"/>
			<input>
				<port id="0">
					<dim>96</dim>
					<dim>16</dim>
					<dim>1</dim>
					<dim>1</dim>
				</port>
				<port id="1">
					<dim>1</dim>
				</port>
				<port id="2">
					<dim>1</dim>
				</port>
				<port id="3">
					<dim>96</dim>
					<dim>1</dim>
					<dim>1</dim>
					<dim>1</dim>
				</port>
				<port id="4">
					<dim>96</dim>
					<dim>1</dim>
					<dim>1</dim>
					<dim>1</dim>
				</port>
			</input>
			<output>
				<port id="5" precision="FP16">
					<dim>96</dim>
					<dim>16</dim>
					<dim>1</dim>
					<dim>1</dim>
				</port>
			</output>
		</layer>
		<layer id="280" name="MobilenetV2/expanded_conv_5/expand/Conv2D" type="Convolution" version="opset1">
			<data auto_pad="same_upper" dilations="1,1" output_padding="0,0" pads_begin="0,0" pads_end="0,0" strides="1,1"/>
			<input>
				<port id="0">
					<dim>1</dim>
					<dim>16</dim>
					<dim>38</dim>
					<dim>38</dim>
				</port>
				<port id="1">
					<dim>96</dim>
					<dim>16</dim>
					<dim>1</dim>
					<dim>1</dim>
				</port>
			</input>
			<output>
				<port id="2" precision="FP16">
					<dim>1</dim>
					<dim>96</dim>
					<dim>38</dim>
					<dim>38</dim>
				</port>
			</output>
		</layer>
		<layer id="281" name="data_add_1201012015/copy_const496_const" type="Const" version="opset1">
			<data element_type="f16" offset="24870" shape="1,96,1,1" size="192"/>
			<output>
				<port id="1" precision="FP16">
					<dim>1</dim>
					<dim>96</dim>
					<dim>1</dim>
					<dim>1</dim>
				</port>
			</output>
		</layer>
		<layer id="282" name="MobilenetV2/expanded_conv_5/expand/BatchNorm/FusedBatchNorm/variance/Fused_Add_" type="Add" version="opset1">
			<input>
				<port id="0">
					<dim>1</dim>
					<dim>96</dim>
					<dim>38</dim>
					<dim>38</dim>
				</port>
				<port id="1">
					<dim>1</dim>
					<dim>96</dim>
					<dim>1</dim>
					<dim>1</dim>
				</port>
			</input>
			<output>
				<port id="2" precision="FP16">
					<dim>1</dim>
					<dim>96</dim>
					<dim>38</dim>
					<dim>38</dim>
				</port>
			</output>
		</layer>
		<layer id="283" name="MobilenetV2/expanded_conv_5/expand/Relu6" type="Clamp" version="opset1">
			<data max="6" min="0"/>
			<input>
				<port id="0">
					<dim>1</dim>
					<dim>96</dim>
					<dim>38</dim>
					<dim>38</dim>
				</port>
			</input>
			<output>
				<port id="1" precision="FP16">
					<dim>1</dim>
					<dim>96</dim>
					<dim>38</dim>
					<dim>38</dim>
				</port>
			</output>
		</layer>
		<layer id="284" name="15991603_const" type="Const" version="opset1">
			<data element_type="f16" offset="3302" shape="1,96,1,1" size="192"/>
			<output>
				<port id="1" precision="FP16">
					<dim>1</dim>
					<dim>96</dim>
					<dim>1</dim>
					<dim>1</dim>
				</port>
			</output>
		</layer>
		<layer id="285" name="16001604_const" type="Const" version="opset1">
			<data element_type="f16" offset="25062" shape="1,96,1,1" size="192"/>
			<output>
				<port id="1" precision="FP16">
					<dim>1</dim>
					<dim>96</dim>
					<dim>1</dim>
					<dim>1</dim>
				</port>
			</output>
		</layer>
		<layer id="286" name="16011605_const" type="Const" version="opset1">
			<data element_type="f16" offset="3302" shape="1,96,1,1" size="192"/>
			<output>
				<port id="1" precision="FP16">
					<dim>1</dim>
					<dim>96</dim>
					<dim>1</dim>
					<dim>1</dim>
				</port>
			</output>
		</layer>
		<layer id="287" name="16021606_const" type="Const" version="opset1">
			<data element_type="f16" offset="25062" shape="1,96,1,1" size="192"/>
			<output>
				<port id="1" precision="FP16">
					<dim>1</dim>
					<dim>96</dim>
					<dim>1</dim>
					<dim>1</dim>
				</port>
			</output>
		</layer>
		<layer id="288" name="MobilenetV2/expanded_conv_5/depthwise/depthwise/fq_input_0" type="FakeQuantize" version="opset1">
			<data levels="256"/>
			<input>
				<port id="0">
					<dim>1</dim>
					<dim>96</dim>
					<dim>38</dim>
					<dim>38</dim>
				</port>
				<port id="1">
					<dim>1</dim>
					<dim>96</dim>
					<dim>1</dim>
					<dim>1</dim>
				</port>
				<port id="2">
					<dim>1</dim>
					<dim>96</dim>
					<dim>1</dim>
					<dim>1</dim>
				</port>
				<port id="3">
					<dim>1</dim>
					<dim>96</dim>
					<dim>1</dim>
					<dim>1</dim>
				</port>
				<port id="4">
					<dim>1</dim>
					<dim>96</dim>
					<dim>1</dim>
					<dim>1</dim>
				</port>
			</input>
			<output>
				<port id="5" precision="FP16">
					<dim>1</dim>
					<dim>96</dim>
					<dim>38</dim>
					<dim>38</dim>
				</port>
			</output>
		</layer>
		<layer id="289" name="MobilenetV2/expanded_conv_5/depthwise/depthwise/fq_weights_1/Convert_to_float/Cast_06801_const" type="Const" version="opset1">
			<data element_type="u8" offset="25254" shape="96,1,3,3" size="864"/>
			<output>
				<port id="1" precision="U8">
					<dim>96</dim>
					<dim>1</dim>
					<dim>3</dim>
					<dim>3</dim>
				</port>
			</output>
		</layer>
		<layer id="290" name="MobilenetV2/expanded_conv_5/depthwise/depthwise/fq_weights_1/Convert_to_float" type="Convert" version="opset1">
			<data destination_type="f16"/>
			<input>
				<port id="0">
					<dim>96</dim>
					<dim>1</dim>
					<dim>3</dim>
					<dim>3</dim>
				</port>
			</input>
			<output>
				<port id="1" precision="FP16">
					<dim>96</dim>
					<dim>1</dim>
					<dim>3</dim>
					<dim>3</dim>
				</port>
			</output>
		</layer>
		<layer id="291" name="MobilenetV2/expanded_conv_5/depthwise/depthwise/fq_weights_1/Copy/out_low5921_const" type="Const" version="opset1">
			<data element_type="f16" offset="448" shape="1" size="2"/>
			<output>
				<port id="1" precision="FP16">
					<dim>1</dim>
				</port>
			</output>
		</layer>
		<layer id="292" name="MobilenetV2/expanded_conv_5/depthwise/depthwise/fq_weights_1/Copy/out_high5922_const" type="Const" version="opset1">
			<data element_type="f16" offset="450" shape="1" size="2"/>
			<output>
				<port id="1" precision="FP16">
					<dim>1</dim>
				</port>
			</output>
		</layer>
		<layer id="293" name="16111615_const" type="Const" version="opset1">
			<data element_type="f16" offset="26118" shape="96,1,1,1" size="192"/>
			<output>
				<port id="1" precision="FP16">
					<dim>96</dim>
					<dim>1</dim>
					<dim>1</dim>
					<dim>1</dim>
				</port>
			</output>
		</layer>
		<layer id="294" name="16121616_const" type="Const" version="opset1">
			<data element_type="f16" offset="26310" shape="96,1,1,1" size="192"/>
			<output>
				<port id="1" precision="FP16">
					<dim>96</dim>
					<dim>1</dim>
					<dim>1</dim>
					<dim>1</dim>
				</port>
			</output>
		</layer>
		<layer id="295" name="MobilenetV2/expanded_conv_5/depthwise/depthwise/fq_weights_1" type="FakeQuantize" version="opset1">
			<data levels="255"/>
			<input>
				<port id="0">
					<dim>96</dim>
					<dim>1</dim>
					<dim>3</dim>
					<dim>3</dim>
				</port>
				<port id="1">
					<dim>1</dim>
				</port>
				<port id="2">
					<dim>1</dim>
				</port>
				<port id="3">
					<dim>96</dim>
					<dim>1</dim>
					<dim>1</dim>
					<dim>1</dim>
				</port>
				<port id="4">
					<dim>96</dim>
					<dim>1</dim>
					<dim>1</dim>
					<dim>1</dim>
				</port>
			</input>
			<output>
				<port id="5" precision="FP16">
					<dim>96</dim>
					<dim>1</dim>
					<dim>3</dim>
					<dim>3</dim>
				</port>
			</output>
		</layer>
		<layer id="296" name="7636/value7638_const" type="Const" version="opset1">
			<data element_type="i64" offset="4934" shape="5" size="40"/>
			<output>
				<port id="1" precision="I64">
					<dim>5</dim>
				</port>
			</output>
		</layer>
		<layer id="297" name="7636" type="Reshape" version="opset1">
			<data special_zero="True"/>
			<input>
				<port id="0">
					<dim>96</dim>
					<dim>1</dim>
					<dim>3</dim>
					<dim>3</dim>
				</port>
				<port id="1">
					<dim>5</dim>
				</port>
			</input>
			<output>
				<port id="2" precision="FP16">
					<dim>96</dim>
					<dim>1</dim>
					<dim>1</dim>
					<dim>3</dim>
					<dim>3</dim>
				</port>
			</output>
		</layer>
		<layer id="298" name="MobilenetV2/expanded_conv_5/depthwise/depthwise" type="GroupConvolution" version="opset1">
			<data auto_pad="same_upper" dilations="1,1" output_padding="0,0" pads_begin="0,0" pads_end="0,0" strides="1,1"/>
			<input>
				<port id="0">
					<dim>1</dim>
					<dim>96</dim>
					<dim>38</dim>
					<dim>38</dim>
				</port>
				<port id="1">
					<dim>96</dim>
					<dim>1</dim>
					<dim>1</dim>
					<dim>3</dim>
					<dim>3</dim>
				</port>
			</input>
			<output>
				<port id="2" precision="FP16">
					<dim>1</dim>
					<dim>96</dim>
					<dim>38</dim>
					<dim>38</dim>
				</port>
			</output>
		</layer>
		<layer id="299" name="data_add_1201812023/copy_const501_const" type="Const" version="opset1">
			<data element_type="f16" offset="26502" shape="1,96,1,1" size="192"/>
			<output>
				<port id="1" precision="FP16">
					<dim>1</dim>
					<dim>96</dim>
					<dim>1</dim>
					<dim>1</dim>
				</port>
			</output>
		</layer>
		<layer id="300" name="MobilenetV2/expanded_conv_5/depthwise/BatchNorm/FusedBatchNorm/variance/Fused_Add_" type="Add" version="opset1">
			<input>
				<port id="0">
					<dim>1</dim>
					<dim>96</dim>
					<dim>38</dim>
					<dim>38</dim>
				</port>
				<port id="1">
					<dim>1</dim>
					<dim>96</dim>
					<dim>1</dim>
					<dim>1</dim>
				</port>
			</input>
			<output>
				<port id="2" precision="FP16">
					<dim>1</dim>
					<dim>96</dim>
					<dim>38</dim>
					<dim>38</dim>
				</port>
			</output>
		</layer>
		<layer id="301" name="MobilenetV2/expanded_conv_5/depthwise/Relu6" type="Clamp" version="opset1">
			<data max="6" min="0"/>
			<input>
				<port id="0">
					<dim>1</dim>
					<dim>96</dim>
					<dim>38</dim>
					<dim>38</dim>
				</port>
			</input>
			<output>
				<port id="1" precision="FP16">
					<dim>1</dim>
					<dim>96</dim>
					<dim>38</dim>
					<dim>38</dim>
				</port>
			</output>
		</layer>
		<layer id="302" name="28392843_const" type="Const" version="opset1">
			<data element_type="f16" offset="448" shape="" size="2"/>
			<output>
				<port id="1" precision="FP16"/>
			</output>
		</layer>
		<layer id="303" name="28402844_const" type="Const" version="opset1">
			<data element_type="f16" offset="548" shape="" size="2"/>
			<output>
				<port id="1" precision="FP16"/>
			</output>
		</layer>
		<layer id="304" name="28412845_const" type="Const" version="opset1">
			<data element_type="f16" offset="448" shape="" size="2"/>
			<output>
				<port id="1" precision="FP16"/>
			</output>
		</layer>
		<layer id="305" name="28422846_const" type="Const" version="opset1">
			<data element_type="f16" offset="548" shape="" size="2"/>
			<output>
				<port id="1" precision="FP16"/>
			</output>
		</layer>
		<layer id="306" name="MobilenetV2/expanded_conv_5/project/Conv2D/fq_input_0" type="FakeQuantize" version="opset1">
			<data levels="256"/>
			<input>
				<port id="0">
					<dim>1</dim>
					<dim>96</dim>
					<dim>38</dim>
					<dim>38</dim>
				</port>
				<port id="1"/>
				<port id="2"/>
				<port id="3"/>
				<port id="4"/>
			</input>
			<output>
				<port id="5" precision="FP16">
					<dim>1</dim>
					<dim>96</dim>
					<dim>38</dim>
					<dim>38</dim>
				</port>
			</output>
		</layer>
		<layer id="307" name="MobilenetV2/expanded_conv_5/project/Conv2D/fq_weights_1/Convert_to_float/Cast_06837_const" type="Const" version="opset1">
			<data element_type="u8" offset="26694" shape="16,96,1,1" size="1536"/>
			<output>
				<port id="1" precision="U8">
					<dim>16</dim>
					<dim>96</dim>
					<dim>1</dim>
					<dim>1</dim>
				</port>
			</output>
		</layer>
		<layer id="308" name="MobilenetV2/expanded_conv_5/project/Conv2D/fq_weights_1/Convert_to_float" type="Convert" version="opset1">
			<data destination_type="f16"/>
			<input>
				<port id="0">
					<dim>16</dim>
					<dim>96</dim>
					<dim>1</dim>
					<dim>1</dim>
				</port>
			</input>
			<output>
				<port id="1" precision="FP16">
					<dim>16</dim>
					<dim>96</dim>
					<dim>1</dim>
					<dim>1</dim>
				</port>
			</output>
		</layer>
		<layer id="309" name="MobilenetV2/expanded_conv_5/project/Conv2D/fq_weights_1/Copy/out_low5481_const" type="Const" version="opset1">
			<data element_type="f16" offset="448" shape="1" size="2"/>
			<output>
				<port id="1" precision="FP16">
					<dim>1</dim>
				</port>
			</output>
		</layer>
		<layer id="310" name="MobilenetV2/expanded_conv_5/project/Conv2D/fq_weights_1/Copy/out_high5482_const" type="Const" version="opset1">
			<data element_type="f16" offset="450" shape="1" size="2"/>
			<output>
				<port id="1" precision="FP16">
					<dim>1</dim>
				</port>
			</output>
		</layer>
		<layer id="311" name="28512855_const" type="Const" version="opset1">
			<data element_type="f16" offset="28230" shape="16,1,1,1" size="32"/>
			<output>
				<port id="1" precision="FP16">
					<dim>16</dim>
					<dim>1</dim>
					<dim>1</dim>
					<dim>1</dim>
				</port>
			</output>
		</layer>
		<layer id="312" name="28522856_const" type="Const" version="opset1">
			<data element_type="f16" offset="28262" shape="16,1,1,1" size="32"/>
			<output>
				<port id="1" precision="FP16">
					<dim>16</dim>
					<dim>1</dim>
					<dim>1</dim>
					<dim>1</dim>
				</port>
			</output>
		</layer>
		<layer id="313" name="MobilenetV2/expanded_conv_5/project/Conv2D/fq_weights_1" type="FakeQuantize" version="opset1">
			<data levels="255"/>
			<input>
				<port id="0">
					<dim>16</dim>
					<dim>96</dim>
					<dim>1</dim>
					<dim>1</dim>
				</port>
				<port id="1">
					<dim>1</dim>
				</port>
				<port id="2">
					<dim>1</dim>
				</port>
				<port id="3">
					<dim>16</dim>
					<dim>1</dim>
					<dim>1</dim>
					<dim>1</dim>
				</port>
				<port id="4">
					<dim>16</dim>
					<dim>1</dim>
					<dim>1</dim>
					<dim>1</dim>
				</port>
			</input>
			<output>
				<port id="5" precision="FP16">
					<dim>16</dim>
					<dim>96</dim>
					<dim>1</dim>
					<dim>1</dim>
				</port>
			</output>
		</layer>
		<layer id="314" name="MobilenetV2/expanded_conv_5/project/Conv2D" type="Convolution" version="opset1">
			<data auto_pad="same_upper" dilations="1,1" output_padding="0,0" pads_begin="0,0" pads_end="0,0" strides="1,1"/>
			<input>
				<port id="0">
					<dim>1</dim>
					<dim>96</dim>
					<dim>38</dim>
					<dim>38</dim>
				</port>
				<port id="1">
					<dim>16</dim>
					<dim>96</dim>
					<dim>1</dim>
					<dim>1</dim>
				</port>
			</input>
			<output>
				<port id="2" precision="FP16">
					<dim>1</dim>
					<dim>16</dim>
					<dim>38</dim>
					<dim>38</dim>
				</port>
			</output>
		</layer>
		<layer id="315" name="data_add_1202612031/copy_const506_const" type="Const" version="opset1">
			<data element_type="f16" offset="28294" shape="1,16,1,1" size="32"/>
			<output>
				<port id="1" precision="FP16">
					<dim>1</dim>
					<dim>16</dim>
					<dim>1</dim>
					<dim>1</dim>
				</port>
			</output>
		</layer>
		<layer id="316" name="MobilenetV2/expanded_conv_5/project/BatchNorm/FusedBatchNorm/variance/Fused_Add_" type="Add" version="opset1">
			<input>
				<port id="0">
					<dim>1</dim>
					<dim>16</dim>
					<dim>38</dim>
					<dim>38</dim>
				</port>
				<port id="1">
					<dim>1</dim>
					<dim>16</dim>
					<dim>1</dim>
					<dim>1</dim>
				</port>
			</input>
			<output>
				<port id="2" precision="FP16">
					<dim>1</dim>
					<dim>16</dim>
					<dim>38</dim>
					<dim>38</dim>
				</port>
			</output>
		</layer>
		<layer id="317" name="16391643_const" type="Const" version="opset1">
			<data element_type="f16" offset="28326" shape="" size="2"/>
			<output>
				<port id="1" precision="FP16"/>
			</output>
		</layer>
		<layer id="318" name="16401644_const" type="Const" version="opset1">
			<data element_type="f16" offset="28328" shape="" size="2"/>
			<output>
				<port id="1" precision="FP16"/>
			</output>
		</layer>
		<layer id="319" name="16411645_const" type="Const" version="opset1">
			<data element_type="f16" offset="28326" shape="" size="2"/>
			<output>
				<port id="1" precision="FP16"/>
			</output>
		</layer>
		<layer id="320" name="16421646_const" type="Const" version="opset1">
			<data element_type="f16" offset="28328" shape="" size="2"/>
			<output>
				<port id="1" precision="FP16"/>
			</output>
		</layer>
		<layer id="321" name="MobilenetV2/expanded_conv_5/add/fq_input_0" type="FakeQuantize" version="opset1">
			<data levels="256"/>
			<input>
				<port id="0">
					<dim>1</dim>
					<dim>16</dim>
					<dim>38</dim>
					<dim>38</dim>
				</port>
				<port id="1"/>
				<port id="2"/>
				<port id="3"/>
				<port id="4"/>
			</input>
			<output>
				<port id="5" precision="FP16">
					<dim>1</dim>
					<dim>16</dim>
					<dim>38</dim>
					<dim>38</dim>
				</port>
			</output>
		</layer>
		<layer id="322" name="MobilenetV2/expanded_conv_5/add" type="Add" version="opset1">
			<input>
				<port id="0">
					<dim>1</dim>
					<dim>16</dim>
					<dim>38</dim>
					<dim>38</dim>
				</port>
				<port id="1">
					<dim>1</dim>
					<dim>16</dim>
					<dim>38</dim>
					<dim>38</dim>
				</port>
			</input>
			<output>
				<port id="2" precision="FP16">
					<dim>1</dim>
					<dim>16</dim>
					<dim>38</dim>
					<dim>38</dim>
				</port>
			</output>
		</layer>
		<layer id="323" name="28992903_const" type="Const" version="opset1">
			<data element_type="f16" offset="28330" shape="" size="2"/>
			<output>
				<port id="1" precision="FP16"/>
			</output>
		</layer>
		<layer id="324" name="29002904_const" type="Const" version="opset1">
			<data element_type="f16" offset="28332" shape="" size="2"/>
			<output>
				<port id="1" precision="FP16"/>
			</output>
		</layer>
		<layer id="325" name="29012905_const" type="Const" version="opset1">
			<data element_type="f16" offset="28330" shape="" size="2"/>
			<output>
				<port id="1" precision="FP16"/>
			</output>
		</layer>
		<layer id="326" name="29022906_const" type="Const" version="opset1">
			<data element_type="f16" offset="28332" shape="" size="2"/>
			<output>
				<port id="1" precision="FP16"/>
			</output>
		</layer>
		<layer id="327" name="MobilenetV2/expanded_conv_6/expand/Conv2D/fq_input_0" type="FakeQuantize" version="opset1">
			<data levels="256"/>
			<input>
				<port id="0">
					<dim>1</dim>
					<dim>16</dim>
					<dim>38</dim>
					<dim>38</dim>
				</port>
				<port id="1"/>
				<port id="2"/>
				<port id="3"/>
				<port id="4"/>
			</input>
			<output>
				<port id="5" precision="FP16">
					<dim>1</dim>
					<dim>16</dim>
					<dim>38</dim>
					<dim>38</dim>
				</port>
			</output>
		</layer>
		<layer id="328" name="MobilenetV2/expanded_conv_6/expand/Conv2D/fq_weights_1/Convert_to_float/Cast_06803_const" type="Const" version="opset1">
			<data element_type="u8" offset="28334" shape="96,16,1,1" size="1536"/>
			<output>
				<port id="1" precision="U8">
					<dim>96</dim>
					<dim>16</dim>
					<dim>1</dim>
					<dim>1</dim>
				</port>
			</output>
		</layer>
		<layer id="329" name="MobilenetV2/expanded_conv_6/expand/Conv2D/fq_weights_1/Convert_to_float" type="Convert" version="opset1">
			<data destination_type="f16"/>
			<input>
				<port id="0">
					<dim>96</dim>
					<dim>16</dim>
					<dim>1</dim>
					<dim>1</dim>
				</port>
			</input>
			<output>
				<port id="1" precision="FP16">
					<dim>96</dim>
					<dim>16</dim>
					<dim>1</dim>
					<dim>1</dim>
				</port>
			</output>
		</layer>
		<layer id="330" name="MobilenetV2/expanded_conv_6/expand/Conv2D/fq_weights_1/Copy/out_low5681_const" type="Const" version="opset1">
			<data element_type="f16" offset="448" shape="1" size="2"/>
			<output>
				<port id="1" precision="FP16">
					<dim>1</dim>
				</port>
			</output>
		</layer>
		<layer id="331" name="MobilenetV2/expanded_conv_6/expand/Conv2D/fq_weights_1/Copy/out_high5682_const" type="Const" version="opset1">
			<data element_type="f16" offset="450" shape="1" size="2"/>
			<output>
				<port id="1" precision="FP16">
					<dim>1</dim>
				</port>
			</output>
		</layer>
		<layer id="332" name="29112915_const" type="Const" version="opset1">
			<data element_type="f16" offset="29870" shape="96,1,1,1" size="192"/>
			<output>
				<port id="1" precision="FP16">
					<dim>96</dim>
					<dim>1</dim>
					<dim>1</dim>
					<dim>1</dim>
				</port>
			</output>
		</layer>
		<layer id="333" name="29122916_const" type="Const" version="opset1">
			<data element_type="f16" offset="30062" shape="96,1,1,1" size="192"/>
			<output>
				<port id="1" precision="FP16">
					<dim>96</dim>
					<dim>1</dim>
					<dim>1</dim>
					<dim>1</dim>
				</port>
			</output>
		</layer>
		<layer id="334" name="MobilenetV2/expanded_conv_6/expand/Conv2D/fq_weights_1" type="FakeQuantize" version="opset1">
			<data levels="255"/>
			<input>
				<port id="0">
					<dim>96</dim>
					<dim>16</dim>
					<dim>1</dim>
					<dim>1</dim>
				</port>
				<port id="1">
					<dim>1</dim>
				</port>
				<port id="2">
					<dim>1</dim>
				</port>
				<port id="3">
					<dim>96</dim>
					<dim>1</dim>
					<dim>1</dim>
					<dim>1</dim>
				</port>
				<port id="4">
					<dim>96</dim>
					<dim>1</dim>
					<dim>1</dim>
					<dim>1</dim>
				</port>
			</input>
			<output>
				<port id="5" precision="FP16">
					<dim>96</dim>
					<dim>16</dim>
					<dim>1</dim>
					<dim>1</dim>
				</port>
			</output>
		</layer>
		<layer id="335" name="MobilenetV2/expanded_conv_6/expand/Conv2D" type="Convolution" version="opset1">
			<data auto_pad="same_upper" dilations="1,1" output_padding="0,0" pads_begin="0,0" pads_end="0,0" strides="1,1"/>
			<input>
				<port id="0">
					<dim>1</dim>
					<dim>16</dim>
					<dim>38</dim>
					<dim>38</dim>
				</port>
				<port id="1">
					<dim>96</dim>
					<dim>16</dim>
					<dim>1</dim>
					<dim>1</dim>
				</port>
			</input>
			<output>
				<port id="2" precision="FP16">
					<dim>1</dim>
					<dim>96</dim>
					<dim>38</dim>
					<dim>38</dim>
				</port>
			</output>
		</layer>
		<layer id="336" name="data_add_1203412039/copy_const511_const" type="Const" version="opset1">
			<data element_type="f16" offset="30254" shape="1,96,1,1" size="192"/>
			<output>
				<port id="1" precision="FP16">
					<dim>1</dim>
					<dim>96</dim>
					<dim>1</dim>
					<dim>1</dim>
				</port>
			</output>
		</layer>
		<layer id="337" name="MobilenetV2/expanded_conv_6/expand/BatchNorm/FusedBatchNorm/variance/Fused_Add_" type="Add" version="opset1">
			<input>
				<port id="0">
					<dim>1</dim>
					<dim>96</dim>
					<dim>38</dim>
					<dim>38</dim>
				</port>
				<port id="1">
					<dim>1</dim>
					<dim>96</dim>
					<dim>1</dim>
					<dim>1</dim>
				</port>
			</input>
			<output>
				<port id="2" precision="FP16">
					<dim>1</dim>
					<dim>96</dim>
					<dim>38</dim>
					<dim>38</dim>
				</port>
			</output>
		</layer>
		<layer id="338" name="MobilenetV2/expanded_conv_6/expand/Relu6" type="Clamp" version="opset1">
			<data max="6" min="0"/>
			<input>
				<port id="0">
					<dim>1</dim>
					<dim>96</dim>
					<dim>38</dim>
					<dim>38</dim>
				</port>
			</input>
			<output>
				<port id="1" precision="FP16">
					<dim>1</dim>
					<dim>96</dim>
					<dim>38</dim>
					<dim>38</dim>
				</port>
			</output>
		</layer>
		<layer id="339" name="20192023_const" type="Const" version="opset1">
			<data element_type="f16" offset="3302" shape="1,96,1,1" size="192"/>
			<output>
				<port id="1" precision="FP16">
					<dim>1</dim>
					<dim>96</dim>
					<dim>1</dim>
					<dim>1</dim>
				</port>
			</output>
		</layer>
		<layer id="340" name="20202024_const" type="Const" version="opset1">
			<data element_type="f16" offset="30446" shape="1,96,1,1" size="192"/>
			<output>
				<port id="1" precision="FP16">
					<dim>1</dim>
					<dim>96</dim>
					<dim>1</dim>
					<dim>1</dim>
				</port>
			</output>
		</layer>
		<layer id="341" name="20212025_const" type="Const" version="opset1">
			<data element_type="f16" offset="3302" shape="1,96,1,1" size="192"/>
			<output>
				<port id="1" precision="FP16">
					<dim>1</dim>
					<dim>96</dim>
					<dim>1</dim>
					<dim>1</dim>
				</port>
			</output>
		</layer>
		<layer id="342" name="20222026_const" type="Const" version="opset1">
			<data element_type="f16" offset="30446" shape="1,96,1,1" size="192"/>
			<output>
				<port id="1" precision="FP16">
					<dim>1</dim>
					<dim>96</dim>
					<dim>1</dim>
					<dim>1</dim>
				</port>
			</output>
		</layer>
		<layer id="343" name="MobilenetV2/expanded_conv_6/depthwise/depthwise/fq_input_0" type="FakeQuantize" version="opset1">
			<data levels="256"/>
			<input>
				<port id="0">
					<dim>1</dim>
					<dim>96</dim>
					<dim>38</dim>
					<dim>38</dim>
				</port>
				<port id="1">
					<dim>1</dim>
					<dim>96</dim>
					<dim>1</dim>
					<dim>1</dim>
				</port>
				<port id="2">
					<dim>1</dim>
					<dim>96</dim>
					<dim>1</dim>
					<dim>1</dim>
				</port>
				<port id="3">
					<dim>1</dim>
					<dim>96</dim>
					<dim>1</dim>
					<dim>1</dim>
				</port>
				<port id="4">
					<dim>1</dim>
					<dim>96</dim>
					<dim>1</dim>
					<dim>1</dim>
				</port>
			</input>
			<output>
				<port id="5" precision="FP16">
					<dim>1</dim>
					<dim>96</dim>
					<dim>38</dim>
					<dim>38</dim>
				</port>
			</output>
		</layer>
		<layer id="344" name="MobilenetV2/expanded_conv_6/depthwise/depthwise/fq_weights_1/Convert_to_float/Cast_06773_const" type="Const" version="opset1">
			<data element_type="u8" offset="30638" shape="96,1,3,3" size="864"/>
			<output>
				<port id="1" precision="U8">
					<dim>96</dim>
					<dim>1</dim>
					<dim>3</dim>
					<dim>3</dim>
				</port>
			</output>
		</layer>
		<layer id="345" name="MobilenetV2/expanded_conv_6/depthwise/depthwise/fq_weights_1/Convert_to_float" type="Convert" version="opset1">
			<data destination_type="f16"/>
			<input>
				<port id="0">
					<dim>96</dim>
					<dim>1</dim>
					<dim>3</dim>
					<dim>3</dim>
				</port>
			</input>
			<output>
				<port id="1" precision="FP16">
					<dim>96</dim>
					<dim>1</dim>
					<dim>3</dim>
					<dim>3</dim>
				</port>
			</output>
		</layer>
		<layer id="346" name="MobilenetV2/expanded_conv_6/depthwise/depthwise/fq_weights_1/Copy/out_low5889_const" type="Const" version="opset1">
			<data element_type="f16" offset="448" shape="1" size="2"/>
			<output>
				<port id="1" precision="FP16">
					<dim>1</dim>
				</port>
			</output>
		</layer>
		<layer id="347" name="MobilenetV2/expanded_conv_6/depthwise/depthwise/fq_weights_1/Copy/out_high5890_const" type="Const" version="opset1">
			<data element_type="f16" offset="450" shape="1" size="2"/>
			<output>
				<port id="1" precision="FP16">
					<dim>1</dim>
				</port>
			</output>
		</layer>
		<layer id="348" name="20312035_const" type="Const" version="opset1">
			<data element_type="f16" offset="31502" shape="96,1,1,1" size="192"/>
			<output>
				<port id="1" precision="FP16">
					<dim>96</dim>
					<dim>1</dim>
					<dim>1</dim>
					<dim>1</dim>
				</port>
			</output>
		</layer>
		<layer id="349" name="20322036_const" type="Const" version="opset1">
			<data element_type="f16" offset="31694" shape="96,1,1,1" size="192"/>
			<output>
				<port id="1" precision="FP16">
					<dim>96</dim>
					<dim>1</dim>
					<dim>1</dim>
					<dim>1</dim>
				</port>
			</output>
		</layer>
		<layer id="350" name="MobilenetV2/expanded_conv_6/depthwise/depthwise/fq_weights_1" type="FakeQuantize" version="opset1">
			<data levels="255"/>
			<input>
				<port id="0">
					<dim>96</dim>
					<dim>1</dim>
					<dim>3</dim>
					<dim>3</dim>
				</port>
				<port id="1">
					<dim>1</dim>
				</port>
				<port id="2">
					<dim>1</dim>
				</port>
				<port id="3">
					<dim>96</dim>
					<dim>1</dim>
					<dim>1</dim>
					<dim>1</dim>
				</port>
				<port id="4">
					<dim>96</dim>
					<dim>1</dim>
					<dim>1</dim>
					<dim>1</dim>
				</port>
			</input>
			<output>
				<port id="5" precision="FP16">
					<dim>96</dim>
					<dim>1</dim>
					<dim>3</dim>
					<dim>3</dim>
				</port>
			</output>
		</layer>
		<layer id="351" name="7696/value7698_const" type="Const" version="opset1">
			<data element_type="i64" offset="4934" shape="5" size="40"/>
			<output>
				<port id="1" precision="I64">
					<dim>5</dim>
				</port>
			</output>
		</layer>
		<layer id="352" name="7696" type="Reshape" version="opset1">
			<data special_zero="True"/>
			<input>
				<port id="0">
					<dim>96</dim>
					<dim>1</dim>
					<dim>3</dim>
					<dim>3</dim>
				</port>
				<port id="1">
					<dim>5</dim>
				</port>
			</input>
			<output>
				<port id="2" precision="FP16">
					<dim>96</dim>
					<dim>1</dim>
					<dim>1</dim>
					<dim>3</dim>
					<dim>3</dim>
				</port>
			</output>
		</layer>
		<layer id="353" name="MobilenetV2/expanded_conv_6/depthwise/depthwise" type="GroupConvolution" version="opset1">
			<data auto_pad="same_upper" dilations="1,1" output_padding="0,0" pads_begin="0,0" pads_end="0,0" strides="2,2"/>
			<input>
				<port id="0">
					<dim>1</dim>
					<dim>96</dim>
					<dim>38</dim>
					<dim>38</dim>
				</port>
				<port id="1">
					<dim>96</dim>
					<dim>1</dim>
					<dim>1</dim>
					<dim>3</dim>
					<dim>3</dim>
				</port>
			</input>
			<output>
				<port id="2" precision="FP16">
					<dim>1</dim>
					<dim>96</dim>
					<dim>19</dim>
					<dim>19</dim>
				</port>
			</output>
		</layer>
		<layer id="354" name="data_add_1204212047/copy_const516_const" type="Const" version="opset1">
			<data element_type="f16" offset="31886" shape="1,96,1,1" size="192"/>
			<output>
				<port id="1" precision="FP16">
					<dim>1</dim>
					<dim>96</dim>
					<dim>1</dim>
					<dim>1</dim>
				</port>
			</output>
		</layer>
		<layer id="355" name="MobilenetV2/expanded_conv_6/depthwise/BatchNorm/FusedBatchNorm/variance/Fused_Add_" type="Add" version="opset1">
			<input>
				<port id="0">
					<dim>1</dim>
					<dim>96</dim>
					<dim>19</dim>
					<dim>19</dim>
				</port>
				<port id="1">
					<dim>1</dim>
					<dim>96</dim>
					<dim>1</dim>
					<dim>1</dim>
				</port>
			</input>
			<output>
				<port id="2" precision="FP16">
					<dim>1</dim>
					<dim>96</dim>
					<dim>19</dim>
					<dim>19</dim>
				</port>
			</output>
		</layer>
		<layer id="356" name="MobilenetV2/expanded_conv_6/depthwise/Relu6" type="Clamp" version="opset1">
			<data max="6" min="0"/>
			<input>
				<port id="0">
					<dim>1</dim>
					<dim>96</dim>
					<dim>19</dim>
					<dim>19</dim>
				</port>
			</input>
			<output>
				<port id="1" precision="FP16">
					<dim>1</dim>
					<dim>96</dim>
					<dim>19</dim>
					<dim>19</dim>
				</port>
			</output>
		</layer>
		<layer id="357" name="14391443_const" type="Const" version="opset1">
			<data element_type="f16" offset="448" shape="" size="2"/>
			<output>
				<port id="1" precision="FP16"/>
			</output>
		</layer>
		<layer id="358" name="14401444_const" type="Const" version="opset1">
			<data element_type="f16" offset="548" shape="" size="2"/>
			<output>
				<port id="1" precision="FP16"/>
			</output>
		</layer>
		<layer id="359" name="14411445_const" type="Const" version="opset1">
			<data element_type="f16" offset="448" shape="" size="2"/>
			<output>
				<port id="1" precision="FP16"/>
			</output>
		</layer>
		<layer id="360" name="14421446_const" type="Const" version="opset1">
			<data element_type="f16" offset="548" shape="" size="2"/>
			<output>
				<port id="1" precision="FP16"/>
			</output>
		</layer>
		<layer id="361" name="MobilenetV2/expanded_conv_6/project/Conv2D/fq_input_0" type="FakeQuantize" version="opset1">
			<data levels="256"/>
			<input>
				<port id="0">
					<dim>1</dim>
					<dim>96</dim>
					<dim>19</dim>
					<dim>19</dim>
				</port>
				<port id="1"/>
				<port id="2"/>
				<port id="3"/>
				<port id="4"/>
			</input>
			<output>
				<port id="5" precision="FP16">
					<dim>1</dim>
					<dim>96</dim>
					<dim>19</dim>
					<dim>19</dim>
				</port>
			</output>
		</layer>
		<layer id="362" name="MobilenetV2/expanded_conv_6/project/Conv2D/fq_weights_1/Convert_to_float/Cast_06825_const" type="Const" version="opset1">
			<data element_type="u8" offset="32078" shape="24,96,1,1" size="2304"/>
			<output>
				<port id="1" precision="U8">
					<dim>24</dim>
					<dim>96</dim>
					<dim>1</dim>
					<dim>1</dim>
				</port>
			</output>
		</layer>
		<layer id="363" name="MobilenetV2/expanded_conv_6/project/Conv2D/fq_weights_1/Convert_to_float" type="Convert" version="opset1">
			<data destination_type="f16"/>
			<input>
				<port id="0">
					<dim>24</dim>
					<dim>96</dim>
					<dim>1</dim>
					<dim>1</dim>
				</port>
			</input>
			<output>
				<port id="1" precision="FP16">
					<dim>24</dim>
					<dim>96</dim>
					<dim>1</dim>
					<dim>1</dim>
				</port>
			</output>
		</layer>
		<layer id="364" name="MobilenetV2/expanded_conv_6/project/Conv2D/fq_weights_1/Copy/out_low5505_const" type="Const" version="opset1">
			<data element_type="f16" offset="448" shape="1" size="2"/>
			<output>
				<port id="1" precision="FP16">
					<dim>1</dim>
				</port>
			</output>
		</layer>
		<layer id="365" name="MobilenetV2/expanded_conv_6/project/Conv2D/fq_weights_1/Copy/out_high5506_const" type="Const" version="opset1">
			<data element_type="f16" offset="450" shape="1" size="2"/>
			<output>
				<port id="1" precision="FP16">
					<dim>1</dim>
				</port>
			</output>
		</layer>
		<layer id="366" name="14511455_const" type="Const" version="opset1">
			<data element_type="f16" offset="34382" shape="24,1,1,1" size="48"/>
			<output>
				<port id="1" precision="FP16">
					<dim>24</dim>
					<dim>1</dim>
					<dim>1</dim>
					<dim>1</dim>
				</port>
			</output>
		</layer>
		<layer id="367" name="14521456_const" type="Const" version="opset1">
			<data element_type="f16" offset="34430" shape="24,1,1,1" size="48"/>
			<output>
				<port id="1" precision="FP16">
					<dim>24</dim>
					<dim>1</dim>
					<dim>1</dim>
					<dim>1</dim>
				</port>
			</output>
		</layer>
		<layer id="368" name="MobilenetV2/expanded_conv_6/project/Conv2D/fq_weights_1" type="FakeQuantize" version="opset1">
			<data levels="255"/>
			<input>
				<port id="0">
					<dim>24</dim>
					<dim>96</dim>
					<dim>1</dim>
					<dim>1</dim>
				</port>
				<port id="1">
					<dim>1</dim>
				</port>
				<port id="2">
					<dim>1</dim>
				</port>
				<port id="3">
					<dim>24</dim>
					<dim>1</dim>
					<dim>1</dim>
					<dim>1</dim>
				</port>
				<port id="4">
					<dim>24</dim>
					<dim>1</dim>
					<dim>1</dim>
					<dim>1</dim>
				</port>
			</input>
			<output>
				<port id="5" precision="FP16">
					<dim>24</dim>
					<dim>96</dim>
					<dim>1</dim>
					<dim>1</dim>
				</port>
			</output>
		</layer>
		<layer id="369" name="MobilenetV2/expanded_conv_6/project/Conv2D" type="Convolution" version="opset1">
			<data auto_pad="same_upper" dilations="1,1" output_padding="0,0" pads_begin="0,0" pads_end="0,0" strides="1,1"/>
			<input>
				<port id="0">
					<dim>1</dim>
					<dim>96</dim>
					<dim>19</dim>
					<dim>19</dim>
				</port>
				<port id="1">
					<dim>24</dim>
					<dim>96</dim>
					<dim>1</dim>
					<dim>1</dim>
				</port>
			</input>
			<output>
				<port id="2" precision="FP16">
					<dim>1</dim>
					<dim>24</dim>
					<dim>19</dim>
					<dim>19</dim>
				</port>
			</output>
		</layer>
		<layer id="370" name="data_add_1205012055/copy_const521_const" type="Const" version="opset1">
			<data element_type="f16" offset="34478" shape="1,24,1,1" size="48"/>
			<output>
				<port id="1" precision="FP16">
					<dim>1</dim>
					<dim>24</dim>
					<dim>1</dim>
					<dim>1</dim>
				</port>
			</output>
		</layer>
		<layer id="371" name="MobilenetV2/expanded_conv_6/project/BatchNorm/FusedBatchNorm/variance/Fused_Add_" type="Add" version="opset1">
			<input>
				<port id="0">
					<dim>1</dim>
					<dim>24</dim>
					<dim>19</dim>
					<dim>19</dim>
				</port>
				<port id="1">
					<dim>1</dim>
					<dim>24</dim>
					<dim>1</dim>
					<dim>1</dim>
				</port>
			</input>
			<output>
				<port id="2" precision="FP16">
					<dim>1</dim>
					<dim>24</dim>
					<dim>19</dim>
					<dim>19</dim>
				</port>
			</output>
		</layer>
		<layer id="372" name="18691873_const" type="Const" version="opset1">
			<data element_type="f16" offset="34526" shape="" size="2"/>
			<output>
				<port id="1" precision="FP16"/>
			</output>
		</layer>
		<layer id="373" name="18701874_const" type="Const" version="opset1">
			<data element_type="f16" offset="34528" shape="" size="2"/>
			<output>
				<port id="1" precision="FP16"/>
			</output>
		</layer>
		<layer id="374" name="18711875_const" type="Const" version="opset1">
			<data element_type="f16" offset="34526" shape="" size="2"/>
			<output>
				<port id="1" precision="FP16"/>
			</output>
		</layer>
		<layer id="375" name="18721876_const" type="Const" version="opset1">
			<data element_type="f16" offset="34528" shape="" size="2"/>
			<output>
				<port id="1" precision="FP16"/>
			</output>
		</layer>
		<layer id="376" name="MobilenetV2/expanded_conv_7/add/fq_input_1" type="FakeQuantize" version="opset1">
			<data levels="256"/>
			<input>
				<port id="0">
					<dim>1</dim>
					<dim>24</dim>
					<dim>19</dim>
					<dim>19</dim>
				</port>
				<port id="1"/>
				<port id="2"/>
				<port id="3"/>
				<port id="4"/>
			</input>
			<output>
				<port id="5" precision="FP16">
					<dim>1</dim>
					<dim>24</dim>
					<dim>19</dim>
					<dim>19</dim>
				</port>
			</output>
		</layer>
		<layer id="377" name="MobilenetV2/expanded_conv_7/expand/Conv2D/fq_weights_1/Convert_to_float/Cast_06881_const" type="Const" version="opset1">
			<data element_type="u8" offset="34530" shape="144,24,1,1" size="3456"/>
			<output>
				<port id="1" precision="U8">
					<dim>144</dim>
					<dim>24</dim>
					<dim>1</dim>
					<dim>1</dim>
				</port>
			</output>
		</layer>
		<layer id="378" name="MobilenetV2/expanded_conv_7/expand/Conv2D/fq_weights_1/Convert_to_float" type="Convert" version="opset1">
			<data destination_type="f16"/>
			<input>
				<port id="0">
					<dim>144</dim>
					<dim>24</dim>
					<dim>1</dim>
					<dim>1</dim>
				</port>
			</input>
			<output>
				<port id="1" precision="FP16">
					<dim>144</dim>
					<dim>24</dim>
					<dim>1</dim>
					<dim>1</dim>
				</port>
			</output>
		</layer>
		<layer id="379" name="MobilenetV2/expanded_conv_7/expand/Conv2D/fq_weights_1/Copy/out_low5737_const" type="Const" version="opset1">
			<data element_type="f16" offset="448" shape="1" size="2"/>
			<output>
				<port id="1" precision="FP16">
					<dim>1</dim>
				</port>
			</output>
		</layer>
		<layer id="380" name="MobilenetV2/expanded_conv_7/expand/Conv2D/fq_weights_1/Copy/out_high5738_const" type="Const" version="opset1">
			<data element_type="f16" offset="450" shape="1" size="2"/>
			<output>
				<port id="1" precision="FP16">
					<dim>1</dim>
				</port>
			</output>
		</layer>
		<layer id="381" name="23712375_const" type="Const" version="opset1">
			<data element_type="f16" offset="37986" shape="144,1,1,1" size="288"/>
			<output>
				<port id="1" precision="FP16">
					<dim>144</dim>
					<dim>1</dim>
					<dim>1</dim>
					<dim>1</dim>
				</port>
			</output>
		</layer>
		<layer id="382" name="23722376_const" type="Const" version="opset1">
			<data element_type="f16" offset="38274" shape="144,1,1,1" size="288"/>
			<output>
				<port id="1" precision="FP16">
					<dim>144</dim>
					<dim>1</dim>
					<dim>1</dim>
					<dim>1</dim>
				</port>
			</output>
		</layer>
		<layer id="383" name="MobilenetV2/expanded_conv_7/expand/Conv2D/fq_weights_1" type="FakeQuantize" version="opset1">
			<data levels="255"/>
			<input>
				<port id="0">
					<dim>144</dim>
					<dim>24</dim>
					<dim>1</dim>
					<dim>1</dim>
				</port>
				<port id="1">
					<dim>1</dim>
				</port>
				<port id="2">
					<dim>1</dim>
				</port>
				<port id="3">
					<dim>144</dim>
					<dim>1</dim>
					<dim>1</dim>
					<dim>1</dim>
				</port>
				<port id="4">
					<dim>144</dim>
					<dim>1</dim>
					<dim>1</dim>
					<dim>1</dim>
				</port>
			</input>
			<output>
				<port id="5" precision="FP16">
					<dim>144</dim>
					<dim>24</dim>
					<dim>1</dim>
					<dim>1</dim>
				</port>
			</output>
		</layer>
		<layer id="384" name="MobilenetV2/expanded_conv_7/expand/Conv2D" type="Convolution" version="opset1">
			<data auto_pad="same_upper" dilations="1,1" output_padding="0,0" pads_begin="0,0" pads_end="0,0" strides="1,1"/>
			<input>
				<port id="0">
					<dim>1</dim>
					<dim>24</dim>
					<dim>19</dim>
					<dim>19</dim>
				</port>
				<port id="1">
					<dim>144</dim>
					<dim>24</dim>
					<dim>1</dim>
					<dim>1</dim>
				</port>
			</input>
			<output>
				<port id="2" precision="FP16">
					<dim>1</dim>
					<dim>144</dim>
					<dim>19</dim>
					<dim>19</dim>
				</port>
			</output>
		</layer>
		<layer id="385" name="data_add_1205812063/copy_const525_const" type="Const" version="opset1">
			<data element_type="f16" offset="38562" shape="1,144,1,1" size="288"/>
			<output>
				<port id="1" precision="FP16">
					<dim>1</dim>
					<dim>144</dim>
					<dim>1</dim>
					<dim>1</dim>
				</port>
			</output>
		</layer>
		<layer id="386" name="MobilenetV2/expanded_conv_7/expand/BatchNorm/FusedBatchNorm/variance/Fused_Add_" type="Add" version="opset1">
			<input>
				<port id="0">
					<dim>1</dim>
					<dim>144</dim>
					<dim>19</dim>
					<dim>19</dim>
				</port>
				<port id="1">
					<dim>1</dim>
					<dim>144</dim>
					<dim>1</dim>
					<dim>1</dim>
				</port>
			</input>
			<output>
				<port id="2" precision="FP16">
					<dim>1</dim>
					<dim>144</dim>
					<dim>19</dim>
					<dim>19</dim>
				</port>
			</output>
		</layer>
		<layer id="387" name="MobilenetV2/expanded_conv_7/expand/Relu6" type="Clamp" version="opset1">
			<data max="6" min="0"/>
			<input>
				<port id="0">
					<dim>1</dim>
					<dim>144</dim>
					<dim>19</dim>
					<dim>19</dim>
				</port>
			</input>
			<output>
				<port id="1" precision="FP16">
					<dim>1</dim>
					<dim>144</dim>
					<dim>19</dim>
					<dim>19</dim>
				</port>
			</output>
		</layer>
		<layer id="388" name="14591463_const" type="Const" version="opset1">
			<data element_type="f16" offset="38850" shape="1,144,1,1" size="288"/>
			<output>
				<port id="1" precision="FP16">
					<dim>1</dim>
					<dim>144</dim>
					<dim>1</dim>
					<dim>1</dim>
				</port>
			</output>
		</layer>
		<layer id="389" name="14601464_const" type="Const" version="opset1">
			<data element_type="f16" offset="39138" shape="1,144,1,1" size="288"/>
			<output>
				<port id="1" precision="FP16">
					<dim>1</dim>
					<dim>144</dim>
					<dim>1</dim>
					<dim>1</dim>
				</port>
			</output>
		</layer>
		<layer id="390" name="14611465_const" type="Const" version="opset1">
			<data element_type="f16" offset="38850" shape="1,144,1,1" size="288"/>
			<output>
				<port id="1" precision="FP16">
					<dim>1</dim>
					<dim>144</dim>
					<dim>1</dim>
					<dim>1</dim>
				</port>
			</output>
		</layer>
		<layer id="391" name="14621466_const" type="Const" version="opset1">
			<data element_type="f16" offset="39138" shape="1,144,1,1" size="288"/>
			<output>
				<port id="1" precision="FP16">
					<dim>1</dim>
					<dim>144</dim>
					<dim>1</dim>
					<dim>1</dim>
				</port>
			</output>
		</layer>
		<layer id="392" name="MobilenetV2/expanded_conv_7/depthwise/depthwise/fq_input_0" type="FakeQuantize" version="opset1">
			<data levels="256"/>
			<input>
				<port id="0">
					<dim>1</dim>
					<dim>144</dim>
					<dim>19</dim>
					<dim>19</dim>
				</port>
				<port id="1">
					<dim>1</dim>
					<dim>144</dim>
					<dim>1</dim>
					<dim>1</dim>
				</port>
				<port id="2">
					<dim>1</dim>
					<dim>144</dim>
					<dim>1</dim>
					<dim>1</dim>
				</port>
				<port id="3">
					<dim>1</dim>
					<dim>144</dim>
					<dim>1</dim>
					<dim>1</dim>
				</port>
				<port id="4">
					<dim>1</dim>
					<dim>144</dim>
					<dim>1</dim>
					<dim>1</dim>
				</port>
			</input>
			<output>
				<port id="5" precision="FP16">
					<dim>1</dim>
					<dim>144</dim>
					<dim>19</dim>
					<dim>19</dim>
				</port>
			</output>
		</layer>
		<layer id="393" name="MobilenetV2/expanded_conv_7/depthwise/depthwise/fq_weights_1/Convert_to_float/Cast_06757_const" type="Const" version="opset1">
			<data element_type="u8" offset="39426" shape="144,1,3,3" size="1296"/>
			<output>
				<port id="1" precision="U8">
					<dim>144</dim>
					<dim>1</dim>
					<dim>3</dim>
					<dim>3</dim>
				</port>
			</output>
		</layer>
		<layer id="394" name="MobilenetV2/expanded_conv_7/depthwise/depthwise/fq_weights_1/Convert_to_float" type="Convert" version="opset1">
			<data destination_type="f16"/>
			<input>
				<port id="0">
					<dim>144</dim>
					<dim>1</dim>
					<dim>3</dim>
					<dim>3</dim>
				</port>
			</input>
			<output>
				<port id="1" precision="FP16">
					<dim>144</dim>
					<dim>1</dim>
					<dim>3</dim>
					<dim>3</dim>
				</port>
			</output>
		</layer>
		<layer id="395" name="MobilenetV2/expanded_conv_7/depthwise/depthwise/fq_weights_1/Copy/out_low5417_const" type="Const" version="opset1">
			<data element_type="f16" offset="448" shape="1" size="2"/>
			<output>
				<port id="1" precision="FP16">
					<dim>1</dim>
				</port>
			</output>
		</layer>
		<layer id="396" name="MobilenetV2/expanded_conv_7/depthwise/depthwise/fq_weights_1/Copy/out_high5418_const" type="Const" version="opset1">
			<data element_type="f16" offset="450" shape="1" size="2"/>
			<output>
				<port id="1" precision="FP16">
					<dim>1</dim>
				</port>
			</output>
		</layer>
		<layer id="397" name="14711475_const" type="Const" version="opset1">
			<data element_type="f16" offset="40722" shape="144,1,1,1" size="288"/>
			<output>
				<port id="1" precision="FP16">
					<dim>144</dim>
					<dim>1</dim>
					<dim>1</dim>
					<dim>1</dim>
				</port>
			</output>
		</layer>
		<layer id="398" name="14721476_const" type="Const" version="opset1">
…
		<edge from-layer="632" from-port="2" to-layer="634" to-port="0"/>
		<edge from-layer="633" from-port="1" to-layer="634" to-port="1"/>
		<edge from-layer="634" from-port="2" to-layer="639" to-port="0"/>
		<edge from-layer="635" from-port="1" to-layer="639" to-port="1"/>
		<edge from-layer="636" from-port="1" to-layer="639" to-port="2"/>
		<edge from-layer="637" from-port="1" to-layer="639" to-port="3"/>
		<edge from-layer="638" from-port="1" to-layer="639" to-port="4"/>
		<edge from-layer="639" from-port="5" to-layer="640" to-port="0"/>
		<edge from-layer="590" from-port="5" to-layer="640" to-port="1"/>
		<edge from-layer="640" from-port="2" to-layer="645" to-port="0"/>
		<edge from-layer="641" from-port="1" to-layer="645" to-port="1"/>
		<edge from-layer="642" from-port="1" to-layer="645" to-port="2"/>
		<edge from-layer="643" from-port="1" to-layer="645" to-port="3"/>
		<edge from-layer="644" from-port="1" to-layer="645" to-port="4"/>
		<edge from-layer="646" from-port="1" to-layer="647" to-port="0"/>
		<edge from-layer="647" from-port="1" to-layer="652" to-port="0"/>
		<edge from-layer="648" from-port="1" to-layer="652" to-port="1"/>
		<edge from-layer="649" from-port="1" to-layer="652" to-port="2"/>
		<edge from-layer="650" from-port="1" to-layer="652" to-port="3"/>
		<edge from-layer="651" from-port="1" to-layer="652" to-port="4"/>
		<edge from-layer="645" from-port="5" to-layer="653" to-port="0"/>
		<edge from-layer="652" from-port="5" to-layer="653" to-port="1"/>
		<edge from-layer="653" from-port="2" to-layer="655" to-port="0"/>
		<edge from-layer="654" from-port="1" to-layer="655" to-port="1"/>
		<edge from-layer="655" from-port="2" to-layer="656" to-port="0"/>
		<edge from-layer="656" from-port="1" to-layer="661" to-port="0"/>
		<edge from-layer="657" from-port="1" to-layer="661" to-port="1"/>
		<edge from-layer="658" from-port="1" to-layer="661" to-port="2"/>
		<edge from-layer="659" from-port="1" to-layer="661" to-port="3"/>
		<edge from-layer="660" from-port="1" to-layer="661" to-port="4"/>
		<edge from-layer="662" from-port="1" to-layer="663" to-port="0"/>
		<edge from-layer="663" from-port="1" to-layer="668" to-port="0"/>
		<edge from-layer="664" from-port="1" to-layer="668" to-port="1"/>
		<edge from-layer="665" from-port="1" to-layer="668" to-port="2"/>
		<edge from-layer="666" from-port="1" to-layer="668" to-port="3"/>
		<edge from-layer="667" from-port="1" to-layer="668" to-port="4"/>
		<edge from-layer="668" from-port="5" to-layer="670" to-port="0"/>
		<edge from-layer="669" from-port="1" to-layer="670" to-port="1"/>
		<edge from-layer="661" from-port="5" to-layer="671" to-port="0"/>
		<edge from-layer="670" from-port="2" to-layer="671" to-port="1"/>
		<edge from-layer="671" from-port="2" to-layer="673" to-port="0"/>
		<edge from-layer="672" from-port="1" to-layer="673" to-port="1"/>
		<edge from-layer="673" from-port="2" to-layer="674" to-port="0"/>
		<edge from-layer="674" from-port="1" to-layer="679" to-port="0"/>
		<edge from-layer="675" from-port="1" to-layer="679" to-port="1"/>
		<edge from-layer="676" from-port="1" to-layer="679" to-port="2"/>
		<edge from-layer="677" from-port="1" to-layer="679" to-port="3"/>
		<edge from-layer="678" from-port="1" to-layer="679" to-port="4"/>
		<edge from-layer="680" from-port="1" to-layer="681" to-port="0"/>
		<edge from-layer="681" from-port="1" to-layer="686" to-port="0"/>
		<edge from-layer="682" from-port="1" to-layer="686" to-port="1"/>
		<edge from-layer="683" from-port="1" to-layer="686" to-port="2"/>
		<edge from-layer="684" from-port="1" to-layer="686" to-port="3"/>
		<edge from-layer="685" from-port="1" to-layer="686" to-port="4"/>
		<edge from-layer="679" from-port="5" to-layer="687" to-port="0"/>
		<edge from-layer="686" from-port="5" to-layer="687" to-port="1"/>
		<edge from-layer="687" from-port="2" to-layer="689" to-port="0"/>
		<edge from-layer="688" from-port="1" to-layer="689" to-port="1"/>
		<edge from-layer="689" from-port="2" to-layer="694" to-port="0"/>
		<edge from-layer="690" from-port="1" to-layer="694" to-port="1"/>
		<edge from-layer="691" from-port="1" to-layer="694" to-port="2"/>
		<edge from-layer="692" from-port="1" to-layer="694" to-port="3"/>
		<edge from-layer="693" from-port="1" to-layer="694" to-port="4"/>
		<edge from-layer="694" from-port="5" to-layer="695" to-port="0"/>
		<edge from-layer="645" from-port="5" to-layer="695" to-port="1"/>
		<edge from-layer="695" from-port="2" to-layer="700" to-port="0"/>
		<edge from-layer="696" from-port="1" to-layer="700" to-port="1"/>
		<edge from-layer="697" from-port="1" to-layer="700" to-port="2"/>
		<edge from-layer="698" from-port="1" to-layer="700" to-port="3"/>
		<edge from-layer="699" from-port="1" to-layer="700" to-port="4"/>
		<edge from-layer="701" from-port="1" to-layer="702" to-port="0"/>
		<edge from-layer="702" from-port="1" to-layer="707" to-port="0"/>
		<edge from-layer="703" from-port="1" to-layer="707" to-port="1"/>
		<edge from-layer="704" from-port="1" to-layer="707" to-port="2"/>
		<edge from-layer="705" from-port="1" to-layer="707" to-port="3"/>
		<edge from-layer="706" from-port="1" to-layer="707" to-port="4"/>
		<edge from-layer="700" from-port="5" to-layer="708" to-port="0"/>
		<edge from-layer="707" from-port="5" to-layer="708" to-port="1"/>
		<edge from-layer="708" from-port="2" to-layer="710" to-port="0"/>
		<edge from-layer="709" from-port="1" to-layer="710" to-port="1"/>
		<edge from-layer="710" from-port="2" to-layer="712" to-port="0"/>
		<edge from-layer="711" from-port="1" to-layer="712" to-port="1"/>
		<edge from-layer="712" from-port="2" to-layer="714" to-port="0"/>
		<edge from-layer="713" from-port="1" to-layer="714" to-port="1"/>
		<edge from-layer="715" from-port="1" to-layer="716" to-port="0"/>
		<edge from-layer="716" from-port="1" to-layer="721" to-port="0"/>
		<edge from-layer="717" from-port="1" to-layer="721" to-port="1"/>
		<edge from-layer="718" from-port="1" to-layer="721" to-port="2"/>
		<edge from-layer="719" from-port="1" to-layer="721" to-port="3"/>
		<edge from-layer="720" from-port="1" to-layer="721" to-port="4"/>
		<edge from-layer="700" from-port="5" to-layer="722" to-port="0"/>
		<edge from-layer="721" from-port="5" to-layer="722" to-port="1"/>
		<edge from-layer="722" from-port="2" to-layer="724" to-port="0"/>
		<edge from-layer="723" from-port="1" to-layer="724" to-port="1"/>
		<edge from-layer="724" from-port="2" to-layer="725" to-port="0"/>
		<edge from-layer="725" from-port="1" to-layer="730" to-port="0"/>
		<edge from-layer="726" from-port="1" to-layer="730" to-port="1"/>
		<edge from-layer="727" from-port="1" to-layer="730" to-port="2"/>
		<edge from-layer="728" from-port="1" to-layer="730" to-port="3"/>
		<edge from-layer="729" from-port="1" to-layer="730" to-port="4"/>
		<edge from-layer="731" from-port="1" to-layer="732" to-port="0"/>
		<edge from-layer="732" from-port="1" to-layer="737" to-port="0"/>
		<edge from-layer="733" from-port="1" to-layer="737" to-port="1"/>
		<edge from-layer="734" from-port="1" to-layer="737" to-port="2"/>
		<edge from-layer="735" from-port="1" to-layer="737" to-port="3"/>
		<edge from-layer="736" from-port="1" to-layer="737" to-port="4"/>
		<edge from-layer="737" from-port="5" to-layer="739" to-port="0"/>
		<edge from-layer="738" from-port="1" to-layer="739" to-port="1"/>
		<edge from-layer="730" from-port="5" to-layer="740" to-port="0"/>
		<edge from-layer="739" from-port="2" to-layer="740" to-port="1"/>
		<edge from-layer="740" from-port="2" to-layer="742" to-port="0"/>
		<edge from-layer="741" from-port="1" to-layer="742" to-port="1"/>
		<edge from-layer="742" from-port="2" to-layer="743" to-port="0"/>
		<edge from-layer="743" from-port="1" to-layer="748" to-port="0"/>
		<edge from-layer="744" from-port="1" to-layer="748" to-port="1"/>
		<edge from-layer="745" from-port="1" to-layer="748" to-port="2"/>
		<edge from-layer="746" from-port="1" to-layer="748" to-port="3"/>
		<edge from-layer="747" from-port="1" to-layer="748" to-port="4"/>
		<edge from-layer="749" from-port="1" to-layer="750" to-port="0"/>
		<edge from-layer="750" from-port="1" to-layer="755" to-port="0"/>
		<edge from-layer="751" from-port="1" to-layer="755" to-port="1"/>
		<edge from-layer="752" from-port="1" to-layer="755" to-port="2"/>
		<edge from-layer="753" from-port="1" to-layer="755" to-port="3"/>
		<edge from-layer="754" from-port="1" to-layer="755" to-port="4"/>
		<edge from-layer="748" from-port="5" to-layer="756" to-port="0"/>
		<edge from-layer="755" from-port="5" to-layer="756" to-port="1"/>
		<edge from-layer="756" from-port="2" to-layer="758" to-port="0"/>
		<edge from-layer="757" from-port="1" to-layer="758" to-port="1"/>
		<edge from-layer="758" from-port="2" to-layer="763" to-port="0"/>
		<edge from-layer="759" from-port="1" to-layer="763" to-port="1"/>
		<edge from-layer="760" from-port="1" to-layer="763" to-port="2"/>
		<edge from-layer="761" from-port="1" to-layer="763" to-port="3"/>
		<edge from-layer="762" from-port="1" to-layer="763" to-port="4"/>
		<edge from-layer="764" from-port="1" to-layer="765" to-port="0"/>
		<edge from-layer="765" from-port="1" to-layer="770" to-port="0"/>
		<edge from-layer="766" from-port="1" to-layer="770" to-port="1"/>
		<edge from-layer="767" from-port="1" to-layer="770" to-port="2"/>
		<edge from-layer="768" from-port="1" to-layer="770" to-port="3"/>
		<edge from-layer="769" from-port="1" to-layer="770" to-port="4"/>
		<edge from-layer="763" from-port="5" to-layer="771" to-port="0"/>
		<edge from-layer="770" from-port="5" to-layer="771" to-port="1"/>
		<edge from-layer="771" from-port="2" to-layer="773" to-port="0"/>
		<edge from-layer="772" from-port="1" to-layer="773" to-port="1"/>
		<edge from-layer="773" from-port="2" to-layer="774" to-port="0"/>
		<edge from-layer="774" from-port="1" to-layer="779" to-port="0"/>
		<edge from-layer="775" from-port="1" to-layer="779" to-port="1"/>
		<edge from-layer="776" from-port="1" to-layer="779" to-port="2"/>
		<edge from-layer="777" from-port="1" to-layer="779" to-port="3"/>
		<edge from-layer="778" from-port="1" to-layer="779" to-port="4"/>
		<edge from-layer="780" from-port="1" to-layer="781" to-port="0"/>
		<edge from-layer="781" from-port="1" to-layer="786" to-port="0"/>
		<edge from-layer="782" from-port="1" to-layer="786" to-port="1"/>
		<edge from-layer="783" from-port="1" to-layer="786" to-port="2"/>
		<edge from-layer="784" from-port="1" to-layer="786" to-port="3"/>
		<edge from-layer="785" from-port="1" to-layer="786" to-port="4"/>
		<edge from-layer="786" from-port="5" to-layer="788" to-port="0"/>
		<edge from-layer="787" from-port="1" to-layer="788" to-port="1"/>
		<edge from-layer="779" from-port="5" to-layer="789" to-port="0"/>
		<edge from-layer="788" from-port="2" to-layer="789" to-port="1"/>
		<edge from-layer="789" from-port="2" to-layer="791" to-port="0"/>
		<edge from-layer="790" from-port="1" to-layer="791" to-port="1"/>
		<edge from-layer="791" from-port="2" to-layer="792" to-port="0"/>
		<edge from-layer="792" from-port="1" to-layer="797" to-port="0"/>
		<edge from-layer="793" from-port="1" to-layer="797" to-port="1"/>
		<edge from-layer="794" from-port="1" to-layer="797" to-port="2"/>
		<edge from-layer="795" from-port="1" to-layer="797" to-port="3"/>
		<edge from-layer="796" from-port="1" to-layer="797" to-port="4"/>
		<edge from-layer="798" from-port="1" to-layer="799" to-port="0"/>
		<edge from-layer="799" from-port="1" to-layer="804" to-port="0"/>
		<edge from-layer="800" from-port="1" to-layer="804" to-port="1"/>
		<edge from-layer="801" from-port="1" to-layer="804" to-port="2"/>
		<edge from-layer="802" from-port="1" to-layer="804" to-port="3"/>
		<edge from-layer="803" from-port="1" to-layer="804" to-port="4"/>
		<edge from-layer="797" from-port="5" to-layer="805" to-port="0"/>
		<edge from-layer="804" from-port="5" to-layer="805" to-port="1"/>
		<edge from-layer="805" from-port="2" to-layer="807" to-port="0"/>
		<edge from-layer="806" from-port="1" to-layer="807" to-port="1"/>
		<edge from-layer="807" from-port="2" to-layer="812" to-port="0"/>
		<edge from-layer="808" from-port="1" to-layer="812" to-port="1"/>
		<edge from-layer="809" from-port="1" to-layer="812" to-port="2"/>
		<edge from-layer="810" from-port="1" to-layer="812" to-port="3"/>
		<edge from-layer="811" from-port="1" to-layer="812" to-port="4"/>
		<edge from-layer="812" from-port="5" to-layer="813" to-port="0"/>
		<edge from-layer="763" from-port="5" to-layer="813" to-port="1"/>
		<edge from-layer="813" from-port="2" to-layer="818" to-port="0"/>
		<edge from-layer="814" from-port="1" to-layer="818" to-port="1"/>
		<edge from-layer="815" from-port="1" to-layer="818" to-port="2"/>
		<edge from-layer="816" from-port="1" to-layer="818" to-port="3"/>
		<edge from-layer="817" from-port="1" to-layer="818" to-port="4"/>
		<edge from-layer="819" from-port="1" to-layer="820" to-port="0"/>
		<edge from-layer="820" from-port="1" to-layer="825" to-port="0"/>
		<edge from-layer="821" from-port="1" to-layer="825" to-port="1"/>
		<edge from-layer="822" from-port="1" to-layer="825" to-port="2"/>
		<edge from-layer="823" from-port="1" to-layer="825" to-port="3"/>
		<edge from-layer="824" from-port="1" to-layer="825" to-port="4"/>
		<edge from-layer="818" from-port="5" to-layer="826" to-port="0"/>
		<edge from-layer="825" from-port="5" to-layer="826" to-port="1"/>
		<edge from-layer="826" from-port="2" to-layer="828" to-port="0"/>
		<edge from-layer="827" from-port="1" to-layer="828" to-port="1"/>
		<edge from-layer="828" from-port="2" to-layer="829" to-port="0"/>
		<edge from-layer="829" from-port="1" to-layer="834" to-port="0"/>
		<edge from-layer="830" from-port="1" to-layer="834" to-port="1"/>
		<edge from-layer="831" from-port="1" to-layer="834" to-port="2"/>
		<edge from-layer="832" from-port="1" to-layer="834" to-port="3"/>
		<edge from-layer="833" from-port="1" to-layer="834" to-port="4"/>
		<edge from-layer="835" from-port="1" to-layer="836" to-port="0"/>
		<edge from-layer="836" from-port="1" to-layer="841" to-port="0"/>
		<edge from-layer="837" from-port="1" to-layer="841" to-port="1"/>
		<edge from-layer="838" from-port="1" to-layer="841" to-port="2"/>
		<edge from-layer="839" from-port="1" to-layer="841" to-port="3"/>
		<edge from-layer="840" from-port="1" to-layer="841" to-port="4"/>
		<edge from-layer="841" from-port="5" to-layer="843" to-port="0"/>
		<edge from-layer="842" from-port="1" to-layer="843" to-port="1"/>
		<edge from-layer="834" from-port="5" to-layer="844" to-port="0"/>
		<edge from-layer="843" from-port="2" to-layer="844" to-port="1"/>
		<edge from-layer="844" from-port="2" to-layer="846" to-port="0"/>
		<edge from-layer="845" from-port="1" to-layer="846" to-port="1"/>
		<edge from-layer="846" from-port="2" to-layer="847" to-port="0"/>
		<edge from-layer="847" from-port="1" to-layer="852" to-port="0"/>
		<edge from-layer="848" from-port="1" to-layer="852" to-port="1"/>
		<edge from-layer="849" from-port="1" to-layer="852" to-port="2"/>
		<edge from-layer="850" from-port="1" to-layer="852" to-port="3"/>
		<edge from-layer="851" from-port="1" to-layer="852" to-port="4"/>
		<edge from-layer="853" from-port="1" to-layer="854" to-port="0"/>
		<edge from-layer="854" from-port="1" to-layer="859" to-port="0"/>
		<edge from-layer="855" from-port="1" to-layer="859" to-port="1"/>
		<edge from-layer="856" from-port="1" to-layer="859" to-port="2"/>
		<edge from-layer="857" from-port="1" to-layer="859" to-port="3"/>
		<edge from-layer="858" from-port="1" to-layer="859" to-port="4"/>
		<edge from-layer="852" from-port="5" to-layer="860" to-port="0"/>
		<edge from-layer="859" from-port="5" to-layer="860" to-port="1"/>
		<edge from-layer="860" from-port="2" to-layer="862" to-port="0"/>
		<edge from-layer="861" from-port="1" to-layer="862" to-port="1"/>
		<edge from-layer="862" from-port="2" to-layer="867" to-port="0"/>
		<edge from-layer="863" from-port="1" to-layer="867" to-port="1"/>
		<edge from-layer="864" from-port="1" to-layer="867" to-port="2"/>
		<edge from-layer="865" from-port="1" to-layer="867" to-port="3"/>
		<edge from-layer="866" from-port="1" to-layer="867" to-port="4"/>
		<edge from-layer="867" from-port="5" to-layer="868" to-port="0"/>
		<edge from-layer="818" from-port="5" to-layer="868" to-port="1"/>
		<edge from-layer="868" from-port="2" to-layer="873" to-port="0"/>
		<edge from-layer="869" from-port="1" to-layer="873" to-port="1"/>
		<edge from-layer="870" from-port="1" to-layer="873" to-port="2"/>
		<edge from-layer="871" from-port="1" to-layer="873" to-port="3"/>
		<edge from-layer="872" from-port="1" to-layer="873" to-port="4"/>
		<edge from-layer="874" from-port="1" to-layer="875" to-port="0"/>
		<edge from-layer="875" from-port="1" to-layer="880" to-port="0"/>
		<edge from-layer="876" from-port="1" to-layer="880" to-port="1"/>
		<edge from-layer="877" from-port="1" to-layer="880" to-port="2"/>
		<edge from-layer="878" from-port="1" to-layer="880" to-port="3"/>
		<edge from-layer="879" from-port="1" to-layer="880" to-port="4"/>
		<edge from-layer="873" from-port="5" to-layer="881" to-port="0"/>
		<edge from-layer="880" from-port="5" to-layer="881" to-port="1"/>
		<edge from-layer="881" from-port="2" to-layer="883" to-port="0"/>
		<edge from-layer="882" from-port="1" to-layer="883" to-port="1"/>
		<edge from-layer="883" from-port="2" to-layer="884" to-port="0"/>
		<edge from-layer="884" from-port="1" to-layer="889" to-port="0"/>
		<edge from-layer="885" from-port="1" to-layer="889" to-port="1"/>
		<edge from-layer="886" from-port="1" to-layer="889" to-port="2"/>
		<edge from-layer="887" from-port="1" to-layer="889" to-port="3"/>
		<edge from-layer="888" from-port="1" to-layer="889" to-port="4"/>
		<edge from-layer="890" from-port="1" to-layer="891" to-port="0"/>
		<edge from-layer="891" from-port="1" to-layer="896" to-port="0"/>
		<edge from-layer="892" from-port="1" to-layer="896" to-port="1"/>
		<edge from-layer="893" from-port="1" to-layer="896" to-port="2"/>
		<edge from-layer="894" from-port="1" to-layer="896" to-port="3"/>
		<edge from-layer="895" from-port="1" to-layer="896" to-port="4"/>
		<edge from-layer="896" from-port="5" to-layer="898" to-port="0"/>
		<edge from-layer="897" from-port="1" to-layer="898" to-port="1"/>
		<edge from-layer="889" from-port="5" to-layer="899" to-port="0"/>
		<edge from-layer="898" from-port="2" to-layer="899" to-port="1"/>
		<edge from-layer="899" from-port="2" to-layer="901" to-port="0"/>
		<edge from-layer="900" from-port="1" to-layer="901" to-port="1"/>
		<edge from-layer="901" from-port="2" to-layer="902" to-port="0"/>
		<edge from-layer="902" from-port="1" to-layer="907" to-port="0"/>
		<edge from-layer="903" from-port="1" to-layer="907" to-port="1"/>
		<edge from-layer="904" from-port="1" to-layer="907" to-port="2"/>
		<edge from-layer="905" from-port="1" to-layer="907" to-port="3"/>
		<edge from-layer="906" from-port="1" to-layer="907" to-port="4"/>
		<edge from-layer="908" from-port="1" to-layer="909" to-port="0"/>
		<edge from-layer="909" from-port="1" to-layer="914" to-port="0"/>
		<edge from-layer="910" from-port="1" to-layer="914" to-port="1"/>
		<edge from-layer="911" from-port="1" to-layer="914" to-port="2"/>
		<edge from-layer="912" from-port="1" to-layer="914" to-port="3"/>
		<edge from-layer="913" from-port="1" to-layer="914" to-port="4"/>
		<edge from-layer="907" from-port="5" to-layer="915" to-port="0"/>
		<edge from-layer="914" from-port="5" to-layer="915" to-port="1"/>
		<edge from-layer="915" from-port="2" to-layer="917" to-port="0"/>
		<edge from-layer="916" from-port="1" to-layer="917" to-port="1"/>
		<edge from-layer="917" from-port="2" to-layer="922" to-port="0"/>
		<edge from-layer="918" from-port="1" to-layer="922" to-port="1"/>
		<edge from-layer="919" from-port="1" to-layer="922" to-port="2"/>
		<edge from-layer="920" from-port="1" to-layer="922" to-port="3"/>
		<edge from-layer="921" from-port="1" to-layer="922" to-port="4"/>
		<edge from-layer="923" from-port="1" to-layer="924" to-port="0"/>
		<edge from-layer="924" from-port="1" to-layer="929" to-port="0"/>
		<edge from-layer="925" from-port="1" to-layer="929" to-port="1"/>
		<edge from-layer="926" from-port="1" to-layer="929" to-port="2"/>
		<edge from-layer="927" from-port="1" to-layer="929" to-port="3"/>
		<edge from-layer="928" from-port="1" to-layer="929" to-port="4"/>
		<edge from-layer="922" from-port="5" to-layer="930" to-port="0"/>
		<edge from-layer="929" from-port="5" to-layer="930" to-port="1"/>
		<edge from-layer="930" from-port="2" to-layer="932" to-port="0"/>
		<edge from-layer="931" from-port="1" to-layer="932" to-port="1"/>
		<edge from-layer="932" from-port="2" to-layer="934" to-port="0"/>
		<edge from-layer="933" from-port="1" to-layer="934" to-port="1"/>
		<edge from-layer="934" from-port="2" to-layer="936" to-port="0"/>
		<edge from-layer="935" from-port="1" to-layer="936" to-port="1"/>
		<edge from-layer="937" from-port="1" to-layer="938" to-port="0"/>
		<edge from-layer="938" from-port="1" to-layer="943" to-port="0"/>
		<edge from-layer="939" from-port="1" to-layer="943" to-port="1"/>
		<edge from-layer="940" from-port="1" to-layer="943" to-port="2"/>
		<edge from-layer="941" from-port="1" to-layer="943" to-port="3"/>
		<edge from-layer="942" from-port="1" to-layer="943" to-port="4"/>
		<edge from-layer="922" from-port="5" to-layer="944" to-port="0"/>
		<edge from-layer="943" from-port="5" to-layer="944" to-port="1"/>
		<edge from-layer="944" from-port="2" to-layer="946" to-port="0"/>
		<edge from-layer="945" from-port="1" to-layer="946" to-port="1"/>
		<edge from-layer="946" from-port="2" to-layer="947" to-port="0"/>
		<edge from-layer="947" from-port="1" to-layer="952" to-port="0"/>
		<edge from-layer="948" from-port="1" to-layer="952" to-port="1"/>
		<edge from-layer="949" from-port="1" to-layer="952" to-port="2"/>
		<edge from-layer="950" from-port="1" to-layer="952" to-port="3"/>
		<edge from-layer="951" from-port="1" to-layer="952" to-port="4"/>
		<edge from-layer="953" from-port="1" to-layer="954" to-port="0"/>
		<edge from-layer="954" from-port="1" to-layer="959" to-port="0"/>
		<edge from-layer="955" from-port="1" to-layer="959" to-port="1"/>
		<edge from-layer="956" from-port="1" to-layer="959" to-port="2"/>
		<edge from-layer="957" from-port="1" to-layer="959" to-port="3"/>
		<edge from-layer="958" from-port="1" to-layer="959" to-port="4"/>
		<edge from-layer="952" from-port="5" to-layer="960" to-port="0"/>
		<edge from-layer="959" from-port="5" to-layer="960" to-port="1"/>
		<edge from-layer="960" from-port="2" to-layer="962" to-port="0"/>
		<edge from-layer="961" from-port="1" to-layer="962" to-port="1"/>
		<edge from-layer="962" from-port="2" to-layer="963" to-port="0"/>
		<edge from-layer="963" from-port="1" to-layer="968" to-port="0"/>
		<edge from-layer="964" from-port="1" to-layer="968" to-port="1"/>
		<edge from-layer="965" from-port="1" to-layer="968" to-port="2"/>
		<edge from-layer="966" from-port="1" to-layer="968" to-port="3"/>
		<edge from-layer="967" from-port="1" to-layer="968" to-port="4"/>
		<edge from-layer="969" from-port="1" to-layer="970" to-port="0"/>
		<edge from-layer="970" from-port="1" to-layer="975" to-port="0"/>
		<edge from-layer="971" from-port="1" to-layer="975" to-port="1"/>
		<edge from-layer="972" from-port="1" to-layer="975" to-port="2"/>
		<edge from-layer="973" from-port="1" to-layer="975" to-port="3"/>
		<edge from-layer="974" from-port="1" to-layer="975" to-port="4"/>
		<edge from-layer="968" from-port="5" to-layer="976" to-port="0"/>
		<edge from-layer="975" from-port="5" to-layer="976" to-port="1"/>
		<edge from-layer="976" from-port="2" to-layer="978" to-port="0"/>
		<edge from-layer="977" from-port="1" to-layer="978" to-port="1"/>
		<edge from-layer="978" from-port="2" to-layer="980" to-port="0"/>
		<edge from-layer="979" from-port="1" to-layer="980" to-port="1"/>
		<edge from-layer="980" from-port="2" to-layer="982" to-port="0"/>
		<edge from-layer="981" from-port="1" to-layer="982" to-port="1"/>
		<edge from-layer="983" from-port="1" to-layer="984" to-port="0"/>
		<edge from-layer="984" from-port="1" to-layer="989" to-port="0"/>
		<edge from-layer="985" from-port="1" to-layer="989" to-port="1"/>
		<edge from-layer="986" from-port="1" to-layer="989" to-port="2"/>
		<edge from-layer="987" from-port="1" to-layer="989" to-port="3"/>
		<edge from-layer="988" from-port="1" to-layer="989" to-port="4"/>
		<edge from-layer="968" from-port="5" to-layer="990" to-port="0"/>
		<edge from-layer="989" from-port="5" to-layer="990" to-port="1"/>
		<edge from-layer="990" from-port="2" to-layer="992" to-port="0"/>
		<edge from-layer="991" from-port="1" to-layer="992" to-port="1"/>
		<edge from-layer="992" from-port="2" to-layer="993" to-port="0"/>
		<edge from-layer="993" from-port="1" to-layer="998" to-port="0"/>
		<edge from-layer="994" from-port="1" to-layer="998" to-port="1"/>
		<edge from-layer="995" from-port="1" to-layer="998" to-port="2"/>
		<edge from-layer="996" from-port="1" to-layer="998" to-port="3"/>
		<edge from-layer="997" from-port="1" to-layer="998" to-port="4"/>
		<edge from-layer="999" from-port="1" to-layer="1000" to-port="0"/>
		<edge from-layer="1000" from-port="1" to-layer="1005" to-port="0"/>
		<edge from-layer="1001" from-port="1" to-layer="1005" to-port="1"/>
		<edge from-layer="1002" from-port="1" to-layer="1005" to-port="2"/>
		<edge from-layer="1003" from-port="1" to-layer="1005" to-port="3"/>
		<edge from-layer="1004" from-port="1" to-layer="1005" to-port="4"/>
		<edge from-layer="998" from-port="5" to-layer="1006" to-port="0"/>
		<edge from-layer="1005" from-port="5" to-layer="1006" to-port="1"/>
		<edge from-layer="1006" from-port="2" to-layer="1008" to-port="0"/>
		<edge from-layer="1007" from-port="1" to-layer="1008" to-port="1"/>
		<edge from-layer="1008" from-port="2" to-layer="1009" to-port="0"/>
		<edge from-layer="1009" from-port="1" to-layer="1014" to-port="0"/>
		<edge from-layer="1010" from-port="1" to-layer="1014" to-port="1"/>
		<edge from-layer="1011" from-port="1" to-layer="1014" to-port="2"/>
		<edge from-layer="1012" from-port="1" to-layer="1014" to-port="3"/>
		<edge from-layer="1013" from-port="1" to-layer="1014" to-port="4"/>
		<edge from-layer="1015" from-port="1" to-layer="1016" to-port="0"/>
		<edge from-layer="1016" from-port="1" to-layer="1021" to-port="0"/>
		<edge from-layer="1017" from-port="1" to-layer="1021" to-port="1"/>
		<edge from-layer="1018" from-port="1" to-layer="1021" to-port="2"/>
		<edge from-layer="1019" from-port="1" to-layer="1021" to-port="3"/>
		<edge from-layer="1020" from-port="1" to-layer="1021" to-port="4"/>
		<edge from-layer="1014" from-port="5" to-layer="1022" to-port="0"/>
		<edge from-layer="1021" from-port="5" to-layer="1022" to-port="1"/>
		<edge from-layer="1022" from-port="2" to-layer="1024" to-port="0"/>
		<edge from-layer="1023" from-port="1" to-layer="1024" to-port="1"/>
		<edge from-layer="1024" from-port="2" to-layer="1026" to-port="0"/>
		<edge from-layer="1025" from-port="1" to-layer="1026" to-port="1"/>
		<edge from-layer="1026" from-port="2" to-layer="1028" to-port="0"/>
		<edge from-layer="1027" from-port="1" to-layer="1028" to-port="1"/>
		<edge from-layer="1029" from-port="1" to-layer="1030" to-port="0"/>
		<edge from-layer="1030" from-port="1" to-layer="1035" to-port="0"/>
		<edge from-layer="1031" from-port="1" to-layer="1035" to-port="1"/>
		<edge from-layer="1032" from-port="1" to-layer="1035" to-port="2"/>
		<edge from-layer="1033" from-port="1" to-layer="1035" to-port="3"/>
		<edge from-layer="1034" from-port="1" to-layer="1035" to-port="4"/>
		<edge from-layer="1014" from-port="5" to-layer="1036" to-port="0"/>
		<edge from-layer="1035" from-port="5" to-layer="1036" to-port="1"/>
		<edge from-layer="1036" from-port="2" to-layer="1038" to-port="0"/>
		<edge from-layer="1037" from-port="1" to-layer="1038" to-port="1"/>
		<edge from-layer="1038" from-port="2" to-layer="1039" to-port="0"/>
		<edge from-layer="1039" from-port="1" to-layer="1044" to-port="0"/>
		<edge from-layer="1040" from-port="1" to-layer="1044" to-port="1"/>
		<edge from-layer="1041" from-port="1" to-layer="1044" to-port="2"/>
		<edge from-layer="1042" from-port="1" to-layer="1044" to-port="3"/>
		<edge from-layer="1043" from-port="1" to-layer="1044" to-port="4"/>
		<edge from-layer="1045" from-port="1" to-layer="1046" to-port="0"/>
		<edge from-layer="1046" from-port="1" to-layer="1051" to-port="0"/>
		<edge from-layer="1047" from-port="1" to-layer="1051" to-port="1"/>
		<edge from-layer="1048" from-port="1" to-layer="1051" to-port="2"/>
		<edge from-layer="1049" from-port="1" to-layer="1051" to-port="3"/>
		<edge from-layer="1050" from-port="1" to-layer="1051" to-port="4"/>
		<edge from-layer="1044" from-port="5" to-layer="1052" to-port="0"/>
		<edge from-layer="1051" from-port="5" to-layer="1052" to-port="1"/>
		<edge from-layer="1052" from-port="2" to-layer="1054" to-port="0"/>
		<edge from-layer="1053" from-port="1" to-layer="1054" to-port="1"/>
		<edge from-layer="1054" from-port="2" to-layer="1055" to-port="0"/>
		<edge from-layer="1055" from-port="1" to-layer="1060" to-port="0"/>
		<edge from-layer="1056" from-port="1" to-layer="1060" to-port="1"/>
		<edge from-layer="1057" from-port="1" to-layer="1060" to-port="2"/>
		<edge from-layer="1058" from-port="1" to-layer="1060" to-port="3"/>
		<edge from-layer="1059" from-port="1" to-layer="1060" to-port="4"/>
		<edge from-layer="1061" from-port="1" to-layer="1062" to-port="0"/>
		<edge from-layer="1062" from-port="1" to-layer="1067" to-port="0"/>
		<edge from-layer="1063" from-port="1" to-layer="1067" to-port="1"/>
		<edge from-layer="1064" from-port="1" to-layer="1067" to-port="2"/>
		<edge from-layer="1065" from-port="1" to-layer="1067" to-port="3"/>
		<edge from-layer="1066" from-port="1" to-layer="1067" to-port="4"/>
		<edge from-layer="1060" from-port="5" to-layer="1068" to-port="0"/>
		<edge from-layer="1067" from-port="5" to-layer="1068" to-port="1"/>
		<edge from-layer="1068" from-port="2" to-layer="1070" to-port="0"/>
		<edge from-layer="1069" from-port="1" to-layer="1070" to-port="1"/>
		<edge from-layer="1070" from-port="2" to-layer="1072" to-port="0"/>
		<edge from-layer="1071" from-port="1" to-layer="1072" to-port="1"/>
		<edge from-layer="1072" from-port="2" to-layer="1074" to-port="0"/>
		<edge from-layer="1073" from-port="1" to-layer="1074" to-port="1"/>
		<edge from-layer="1075" from-port="1" to-layer="1076" to-port="0"/>
		<edge from-layer="1076" from-port="1" to-layer="1081" to-port="0"/>
		<edge from-layer="1077" from-port="1" to-layer="1081" to-port="1"/>
		<edge from-layer="1078" from-port="1" to-layer="1081" to-port="2"/>
		<edge from-layer="1079" from-port="1" to-layer="1081" to-port="3"/>
		<edge from-layer="1080" from-port="1" to-layer="1081" to-port="4"/>
		<edge from-layer="1060" from-port="5" to-layer="1082" to-port="0"/>
		<edge from-layer="1081" from-port="5" to-layer="1082" to-port="1"/>
		<edge from-layer="1082" from-port="2" to-layer="1084" to-port="0"/>
		<edge from-layer="1083" from-port="1" to-layer="1084" to-port="1"/>
		<edge from-layer="1084" from-port="2" to-layer="1085" to-port="0"/>
		<edge from-layer="1085" from-port="1" to-layer="1090" to-port="0"/>
		<edge from-layer="1086" from-port="1" to-layer="1090" to-port="1"/>
		<edge from-layer="1087" from-port="1" to-layer="1090" to-port="2"/>
		<edge from-layer="1088" from-port="1" to-layer="1090" to-port="3"/>
		<edge from-layer="1089" from-port="1" to-layer="1090" to-port="4"/>
		<edge from-layer="1091" from-port="1" to-layer="1092" to-port="0"/>
		<edge from-layer="1092" from-port="1" to-layer="1097" to-port="0"/>
		<edge from-layer="1093" from-port="1" to-layer="1097" to-port="1"/>
		<edge from-layer="1094" from-port="1" to-layer="1097" to-port="2"/>
		<edge from-layer="1095" from-port="1" to-layer="1097" to-port="3"/>
		<edge from-layer="1096" from-port="1" to-layer="1097" to-port="4"/>
		<edge from-layer="1090" from-port="5" to-layer="1098" to-port="0"/>
		<edge from-layer="1097" from-port="5" to-layer="1098" to-port="1"/>
		<edge from-layer="1098" from-port="2" to-layer="1100" to-port="0"/>
		<edge from-layer="1099" from-port="1" to-layer="1100" to-port="1"/>
		<edge from-layer="1100" from-port="2" to-layer="1101" to-port="0"/>
		<edge from-layer="1101" from-port="1" to-layer="1106" to-port="0"/>
		<edge from-layer="1102" from-port="1" to-layer="1106" to-port="1"/>
		<edge from-layer="1103" from-port="1" to-layer="1106" to-port="2"/>
		<edge from-layer="1104" from-port="1" to-layer="1106" to-port="3"/>
		<edge from-layer="1105" from-port="1" to-layer="1106" to-port="4"/>
		<edge from-layer="1107" from-port="1" to-layer="1108" to-port="0"/>
		<edge from-layer="1108" from-port="1" to-layer="1113" to-port="0"/>
		<edge from-layer="1109" from-port="1" to-layer="1113" to-port="1"/>
		<edge from-layer="1110" from-port="1" to-layer="1113" to-port="2"/>
		<edge from-layer="1111" from-port="1" to-layer="1113" to-port="3"/>
		<edge from-layer="1112" from-port="1" to-layer="1113" to-port="4"/>
		<edge from-layer="1106" from-port="5" to-layer="1114" to-port="0"/>
		<edge from-layer="1113" from-port="5" to-layer="1114" to-port="1"/>
		<edge from-layer="1114" from-port="2" to-layer="1116" to-port="0"/>
		<edge from-layer="1115" from-port="1" to-layer="1116" to-port="1"/>
		<edge from-layer="1116" from-port="2" to-layer="1118" to-port="0"/>
		<edge from-layer="1117" from-port="1" to-layer="1118" to-port="1"/>
		<edge from-layer="1118" from-port="2" to-layer="1120" to-port="0"/>
		<edge from-layer="1119" from-port="1" to-layer="1120" to-port="1"/>
		<edge from-layer="714" from-port="2" to-layer="1121" to-port="0"/>
		<edge from-layer="936" from-port="2" to-layer="1121" to-port="1"/>
		<edge from-layer="982" from-port="2" to-layer="1121" to-port="2"/>
		<edge from-layer="1028" from-port="2" to-layer="1121" to-port="3"/>
		<edge from-layer="1074" from-port="2" to-layer="1121" to-port="4"/>
		<edge from-layer="1120" from-port="2" to-layer="1121" to-port="5"/>
		<edge from-layer="1121" from-port="6" to-layer="1123" to-port="0"/>
		<edge from-layer="1122" from-port="1" to-layer="1123" to-port="1"/>
		<edge from-layer="1123" from-port="2" to-layer="1125" to-port="0"/>
		<edge from-layer="1124" from-port="1" to-layer="1125" to-port="1"/>
		<edge from-layer="1126" from-port="1" to-layer="1127" to-port="0"/>
		<edge from-layer="1127" from-port="1" to-layer="1132" to-port="0"/>
		<edge from-layer="1128" from-port="1" to-layer="1132" to-port="1"/>
		<edge from-layer="1129" from-port="1" to-layer="1132" to-port="2"/>
		<edge from-layer="1130" from-port="1" to-layer="1132" to-port="3"/>
		<edge from-layer="1131" from-port="1" to-layer="1132" to-port="4"/>
		<edge from-layer="700" from-port="5" to-layer="1133" to-port="0"/>
		<edge from-layer="1132" from-port="5" to-layer="1133" to-port="1"/>
		<edge from-layer="1133" from-port="2" to-layer="1135" to-port="0"/>
		<edge from-layer="1134" from-port="1" to-layer="1135" to-port="1"/>
		<edge from-layer="1135" from-port="2" to-layer="1137" to-port="0"/>
		<edge from-layer="1136" from-port="1" to-layer="1137" to-port="1"/>
		<edge from-layer="1137" from-port="2" to-layer="1139" to-port="0"/>
		<edge from-layer="1138" from-port="1" to-layer="1139" to-port="1"/>
		<edge from-layer="1140" from-port="1" to-layer="1141" to-port="0"/>
		<edge from-layer="1141" from-port="1" to-layer="1146" to-port="0"/>
		<edge from-layer="1142" from-port="1" to-layer="1146" to-port="1"/>
		<edge from-layer="1143" from-port="1" to-layer="1146" to-port="2"/>
		<edge from-layer="1144" from-port="1" to-layer="1146" to-port="3"/>
		<edge from-layer="1145" from-port="1" to-layer="1146" to-port="4"/>
		<edge from-layer="922" from-port="5" to-layer="1147" to-port="0"/>
		<edge from-layer="1146" from-port="5" to-layer="1147" to-port="1"/>
		<edge from-layer="1147" from-port="2" to-layer="1149" to-port="0"/>
		<edge from-layer="1148" from-port="1" to-layer="1149" to-port="1"/>
		<edge from-layer="1149" from-port="2" to-layer="1151" to-port="0"/>
		<edge from-layer="1150" from-port="1" to-layer="1151" to-port="1"/>
		<edge from-layer="1151" from-port="2" to-layer="1153" to-port="0"/>
		<edge from-layer="1152" from-port="1" to-layer="1153" to-port="1"/>
		<edge from-layer="1154" from-port="1" to-layer="1155" to-port="0"/>
		<edge from-layer="1155" from-port="1" to-layer="1160" to-port="0"/>
		<edge from-layer="1156" from-port="1" to-layer="1160" to-port="1"/>
		<edge from-layer="1157" from-port="1" to-layer="1160" to-port="2"/>
		<edge from-layer="1158" from-port="1" to-layer="1160" to-port="3"/>
		<edge from-layer="1159" from-port="1" to-layer="1160" to-port="4"/>
		<edge from-layer="968" from-port="5" to-layer="1161" to-port="0"/>
		<edge from-layer="1160" from-port="5" to-layer="1161" to-port="1"/>
		<edge from-layer="1161" from-port="2" to-layer="1163" to-port="0"/>
		<edge from-layer="1162" from-port="1" to-layer="1163" to-port="1"/>
		<edge from-layer="1163" from-port="2" to-layer="1165" to-port="0"/>
		<edge from-layer="1164" from-port="1" to-layer="1165" to-port="1"/>
		<edge from-layer="1165" from-port="2" to-layer="1167" to-port="0"/>
		<edge from-layer="1166" from-port="1" to-layer="1167" to-port="1"/>
		<edge from-layer="1168" from-port="1" to-layer="1169" to-port="0"/>
		<edge from-layer="1169" from-port="1" to-layer="1174" to-port="0"/>
		<edge from-layer="1170" from-port="1" to-layer="1174" to-port="1"/>
		<edge from-layer="1171" from-port="1" to-layer="1174" to-port="2"/>
		<edge from-layer="1172" from-port="1" to-layer="1174" to-port="3"/>
		<edge from-layer="1173" from-port="1" to-layer="1174" to-port="4"/>
		<edge from-layer="1014" from-port="5" to-layer="1175" to-port="0"/>
		<edge from-layer="1174" from-port="5" to-layer="1175" to-port="1"/>
		<edge from-layer="1175" from-port="2" to-layer="1177" to-port="0"/>
		<edge from-layer="1176" from-port="1" to-layer="1177" to-port="1"/>
		<edge from-layer="1177" from-port="2" to-layer="1179" to-port="0"/>
		<edge from-layer="1178" from-port="1" to-layer="1179" to-port="1"/>
		<edge from-layer="1179" from-port="2" to-layer="1181" to-port="0"/>
		<edge from-layer="1180" from-port="1" to-layer="1181" to-port="1"/>
		<edge from-layer="1182" from-port="1" to-layer="1183" to-port="0"/>
		<edge from-layer="1183" from-port="1" to-layer="1188" to-port="0"/>
		<edge from-layer="1184" from-port="1" to-layer="1188" to-port="1"/>
		<edge from-layer="1185" from-port="1" to-layer="1188" to-port="2"/>
		<edge from-layer="1186" from-port="1" to-layer="1188" to-port="3"/>
		<edge from-layer="1187" from-port="1" to-layer="1188" to-port="4"/>
		<edge from-layer="1060" from-port="5" to-layer="1189" to-port="0"/>
		<edge from-layer="1188" from-port="5" to-layer="1189" to-port="1"/>
		<edge from-layer="1189" from-port="2" to-layer="1191" to-port="0"/>
		<edge from-layer="1190" from-port="1" to-layer="1191" to-port="1"/>
		<edge from-layer="1191" from-port="2" to-layer="1193" to-port="0"/>
		<edge from-layer="1192" from-port="1" to-layer="1193" to-port="1"/>
		<edge from-layer="1193" from-port="2" to-layer="1195" to-port="0"/>
		<edge from-layer="1194" from-port="1" to-layer="1195" to-port="1"/>
		<edge from-layer="1196" from-port="1" to-layer="1197" to-port="0"/>
		<edge from-layer="1197" from-port="1" to-layer="1202" to-port="0"/>
		<edge from-layer="1198" from-port="1" to-layer="1202" to-port="1"/>
		<edge from-layer="1199" from-port="1" to-layer="1202" to-port="2"/>
		<edge from-layer="1200" from-port="1" to-layer="1202" to-port="3"/>
		<edge from-layer="1201" from-port="1" to-layer="1202" to-port="4"/>
		<edge from-layer="1106" from-port="5" to-layer="1203" to-port="0"/>
		<edge from-layer="1202" from-port="5" to-layer="1203" to-port="1"/>
		<edge from-layer="1203" from-port="2" to-layer="1205" to-port="0"/>
		<edge from-layer="1204" from-port="1" to-layer="1205" to-port="1"/>
		<edge from-layer="1205" from-port="2" to-layer="1207" to-port="0"/>
		<edge from-layer="1206" from-port="1" to-layer="1207" to-port="1"/>
		<edge from-layer="1207" from-port="2" to-layer="1209" to-port="0"/>
		<edge from-layer="1208" from-port="1" to-layer="1209" to-port="1"/>
		<edge from-layer="1139" from-port="2" to-layer="1210" to-port="0"/>
		<edge from-layer="1153" from-port="2" to-layer="1210" to-port="1"/>
		<edge from-layer="1167" from-port="2" to-layer="1210" to-port="2"/>
		<edge from-layer="1181" from-port="2" to-layer="1210" to-port="3"/>
		<edge from-layer="1195" from-port="2" to-layer="1210" to-port="4"/>
		<edge from-layer="1209" from-port="2" to-layer="1210" to-port="5"/>
		<edge from-layer="1210" from-port="6" to-layer="1212" to-port="0"/>
		<edge from-layer="1211" from-port="1" to-layer="1212" to-port="1"/>
		<edge from-layer="1212" from-port="2" to-layer="1214" to-port="0"/>
		<edge from-layer="1214" from-port="1" to-layer="1217" to-port="0"/>
		<edge from-layer="1215" from-port="1" to-layer="1217" to-port="1"/>
		<edge from-layer="1216" from-port="1" to-layer="1217" to-port="2"/>
		<edge from-layer="1213" from-port="1" to-layer="1218" to-port="0"/>
		<edge from-layer="1217" from-port="3" to-layer="1218" to-port="1"/>
		<edge from-layer="1218" from-port="2" to-layer="1219" to-port="0"/>
		<edge from-layer="1212" from-port="2" to-layer="1220" to-port="0"/>
		<edge from-layer="1219" from-port="1" to-layer="1220" to-port="1"/>
		<edge from-layer="1220" from-port="2" to-layer="1221" to-port="0"/>
		<edge from-layer="1212" from-port="2" to-layer="1222" to-port="0"/>
		<edge from-layer="1222" from-port="1" to-layer="1223" to-port="0"/>
		<edge from-layer="1221" from-port="1" to-layer="1224" to-port="0"/>
		<edge from-layer="1223" from-port="1" to-layer="1224" to-port="1"/>
		<edge from-layer="1224" from-port="2" to-layer="1226" to-port="0"/>
		<edge from-layer="1225" from-port="1" to-layer="1226" to-port="1"/>
		<edge from-layer="1125" from-port="2" to-layer="1228" to-port="0"/>
		<edge from-layer="1226" from-port="2" to-layer="1228" to-port="1"/>
		<edge from-layer="1227" from-port="1" to-layer="1228" to-port="2"/>
		<edge from-layer="1228" from-port="3" to-layer="1229" to-port="0"/>
	</edges>
	<meta_data>
		<MO_version value="unknown version"/>
		<cli_parameters>
			<blobs_as_inputs value="True"/>
			<caffe_parser_path value="DIR"/>
			<data_type value="FP16"/>
			<disable_nhwc_to_nchw value="False"/>
			<disable_omitting_optional value="False"/>
			<disable_resnet_optimization value="False"/>
			<disable_weights_compression value="False"/>
			<enable_concat_optimization value="False"/>
			<enable_flattening_nested_params value="False"/>
			<enable_ssd_gluoncv value="False"/>
			<extensions value="DIR"/>
			<framework value="tf"/>
			<freeze_placeholder_with_value value="{}"/>
			<generate_deprecated_IR_V2 value="False"/>
			<generate_deprecated_IR_V7 value="False"/>
			<generate_experimental_IR_V10 value="True"/>
			<input value="Placeholder"/>
			<input_model value="DIR/MobileNetSSD.pb.frozen"/>
			<input_model_is_text value="False"/>
			<input_shape value="[1,300,300,3]"/>
			<k value="DIR/CustomLayersMapping.xml"/>
			<keep_quantize_ops_in_IR value="True"/>
			<keep_shape_ops value="True"/>
			<legacy_mxnet_model value="False"/>
			<log_level value="ERROR"/>
			<mean_scale_values value="{'Placeholder': {'mean': array([127.5, 127.5, 127.5]), 'scale': array([127.5])}}"/>
			<mean_values value="Placeholder[127.5,127.5,127.5]"/>
			<model_name value="vehicle-license-plate-detection-barrier-0106"/>
			<move_to_preprocess value="False"/>
			<output value="['SSD/concat_reshape_softmax/mbox_loc_final', 'SSD/concat_reshape_softmax/mbox_conf_final', 'SSD/concat_reshape_softmax/mbox_priorbox']"/>
			<output_dir value="DIR"/>
			<placeholder_data_types value="{}"/>
			<placeholder_shapes value="{'Placeholder': array([  1, 300, 300,   3])}"/>
			<progress value="False"/>
			<remove_memory value="False"/>
			<remove_output_softmax value="False"/>
			<reverse_input_channels value="True"/>
			<save_params_from_nd value="False"/>
			<scale_values value="Placeholder[127.5]"/>
			<silent value="False"/>
			<stream_output value="False"/>
			<transformations_config value="DIR/MobileNetSSD.tfmo.json"/>
			<unset unset_cli_parameters="batch, counts, disable_fusing, disable_gfusing, finegrain_fusing, input_checkpoint, input_meta_graph, input_proto, input_symbol, mean_file, mean_file_offsets, nd_prefix_name, pretrained_model_name, saved_model_dir, saved_model_tags, scale, tensorboard_logdir, tensorflow_custom_layer_libraries, tensorflow_custom_operations_config_update, tensorflow_object_detection_api_pipeline_config, tensorflow_use_custom_operations_config"/>
		</cli_parameters>
	</meta_data>
	<quantization_parameters>
		<config>{
		'compression': {
			'algorithms': [
				{
					'name': 'DefaultQuantization',
					'params': {
						'preset': 'performance',
						'stat_subset_size': 300
					}
				}
			],
			'target_device': 'CPU'
		},
		'engine': {
			'models': [
				{
					'name': 'vehicle-license-plate-detection-barrier-0106',
					'launchers': [
						{
							'framework': 'dlsdk',
							'tags': [
								'FP32'
							],
							'model': 'PATH',
							'weights': 'PATH',
							'adapter': 'ssd',
							'device': 'CPU'
						}
					],
					'datasets': [
						{
							'name': 'vehicle_license_plate_detection',
							'data_source': 'PATH',
							'annotation_conversion': {
								'converter': 'bitvehicle_json',
								'annotation_file': 'PATH'
							},
							'annotation': 'bitvehicle.pickle',
							'dataset_meta': 'bitvehicle.json',
							'preprocessing': [
								{
									'type': 'resize',
									'dst_width': 300,
									'dst_height': 300
								}
							],
							'postprocessing': [
								{
									'type': 'clip_boxes',
									'apply_to': 'prediction',
									'dst_width': 1,
									'dst_height': 1
								},
								{
									'type': 'resize_prediction_boxes'
								},
								{
									'type': 'filter',
									'apply_to': 'prediction',
									'min_confidence': 0.005,
									'is_empty': true
								},
								{
									'type': 'filter',
									'apply_to': 'annotation',
									'area_ratio': 0.034722222222222224
								}
							],
							'metrics': [
								{
									'type': 'map',
									'ignore_difficult': true,
									'include_boundaries': false,
									'allow_multiple_matches_per_ignored': true,
									'distinct_conf': false,
									'presenter': 'print_vector'
								}
							]
						}
					]
				},
				{
					'name': 'vehicle-license-plate-detection-barrier-0106',
					'launchers': [
						{
							'framework': 'dlsdk',
							'tags': [
								'FP16'
							],
							'model': 'PATH',
							'weights': 'PATH',
							'adapter': 'ssd',
							'device': 'CPU'
						}
					],
					'datasets': [
						{
							'name': 'vehicle_license_plate_detection',
							'data_source': 'PATH',
							'annotation_conversion': {
								'converter': 'bitvehicle_json',
								'annotation_file': 'PATH'
							},
							'annotation': 'bitvehicle.pickle',
							'dataset_meta': 'bitvehicle.json',
							'preprocessing': [
								{
									'type': 'resize',
									'dst_width': 300,
									'dst_height': 300
								}
							],
							'postprocessing': [
								{
									'type': 'clip_boxes',
									'apply_to': 'prediction',
									'dst_width': 1,
									'dst_height': 1
								},
								{
									'type': 'resize_prediction_boxes'
								},
								{
									'type': 'filter',
									'apply_to': 'prediction',
									'min_confidence': 0.005,
									'is_empty': true
								},
								{
									'type': 'filter',
									'apply_to': 'annotation',
									'area_ratio': 0.034722222222222224
								}
							],
							'metrics': [
								{
									'type': 'map',
									'ignore_difficult': true,
									'include_boundaries': false,
									'allow_multiple_matches_per_ignored': true,
									'distinct_conf': false,
									'presenter': 'print_vector'
								}
							]
						}
					]
				},
				{
					'name': 'vehicle-license-plate-detection-barrier-0106',
					'launchers': [
						{
							'framework': 'dlsdk',
							'tags': [
								'FP16-INT8'
							],
							'model': 'PATH',
							'weights': 'PATH',
							'adapter': 'ssd',
							'device': 'CPU'
						}
					],
					'datasets': [
						{
							'name': 'vehicle_license_plate_detection',
							'data_source': 'PATH',
							'annotation_conversion': {
								'converter': 'bitvehicle_json',
								'annotation_file': 'PATH'
							},
							'annotation': 'bitvehicle.pickle',
							'dataset_meta': 'bitvehicle.json',
							'preprocessing': [
								{
									'type': 'resize',
									'dst_width': 300,
									'dst_height': 300
								}
							],
							'postprocessing': [
								{
									'type': 'clip_boxes',
									'apply_to': 'prediction',
									'dst_width': 1,
									'dst_height': 1
								},
								{
									'type': 'resize_prediction_boxes'
								},
								{
									'type': 'filter',
									'apply_to': 'prediction',
									'min_confidence': 0.005,
									'is_empty': true
								},
								{
									'type': 'filter',
									'apply_to': 'annotation',
									'area_ratio': 0.034722222222222224
								}
							],
							'metrics': [
								{
									'type': 'map',
									'ignore_difficult': true,
									'include_boundaries': false,
									'allow_multiple_matches_per_ignored': true,
									'distinct_conf': false,
									'presenter': 'print_vector'
								}
							]
						}
					]
				}
			],
			'global_definitions': '../dataset_definitions.yml',
			'stat_requests_number': null,
			'eval_requests_number': null,
			'type': 'accuracy_checker'
		}
	}</config>
		<version value="1.0"/>
		<cli_params value="{'evaluate': False, 'output_dir': 'PATH', 'direct_dump': True, 'log_level': 'INFO', 'pbar': False, 'keep_uncompressed_weights': False}"/>
	</quantization_parameters>
</net>
